machineLearning/surfaceDetectionEngine/data/best_model.pth (torch, 364646 bytes, 6 tensors)

conv1.weight f4 [64, 9, 3]
000000 ed b2 be bd 2c b3 2c be 76 54 e4 3d a0 52 c0 bd
       -0.09311471 -0.16865224 0.11148922 -0.093907595
000010 f1 a2 8d bc d7 3f 32 3e a7 86 22 bd 20 af 69 3d
       -0.01728961 0.17407165 -0.039679196 0.057051778
000020 57 71 15 bd 13 e0 96 3d 48 b6 90 bb 1e da 9d 3d
       -0.036485042 0.073669575 -0.004416261 0.07707618
000030 30 60 17 3e c3 1f 34 be 30 86 a1 3d c8 35 b3 bd
       0.14782786 -0.17590241 0.07886922 -0.08750492
000040 01 fc 55 bd 1a ef 27 be 38 94 a0 3d bf 82 ae 3d
       -0.052242283 -0.16399804 0.078407705 0.085210316
000050 b2 53 55 3d 74 d6 cb 3c 9c 92 99 3d c1 be bc 3d
       0.05208177 0.024882533 0.07498667 0.09216071
000060 2d 54 25 be c5 40 6b 3d 72 cf 3f 3d 8c d7 6c 3d
       -0.16145392 0.057434816 0.046828695 0.05782275
000070 39 16 eb bb ee 6e 30 bd 15 e9 53 bc 04 be 87 bd
       -0.00717428 -0.04307454 -0.012933989 -0.066280395
000080 5d 54 0b 3d 48 75 f6 bd c7 99 54 bd 7a 3b 82 3d
       0.034016002 -0.120340884 -0.051904466 0.063590005
000090 bf d8 9b 3d b1 0d 53 bd 9f a4 50 bd 94 c1 bb bd
       0.076097004 -0.05152673 -0.050938245 -0.091677815
0000a0 22 ec 3c 3e 67 a5 a3 bd a4 c9 fe 3d d2 18 f9 bc
       0.18449453 -0.07990532 0.12440804 -0.030407343
0000b0 ca 20 fc bd 41 73 2e be 9a a1 60 bd e5 86 3d be
       -0.123109415 -0.17036153 -0.054841615 -0.1850849
0000c0 5e a8 36 3d 47 ba 71 bd 6d f9 3d be ad f3 3c be
       0.04459416 -0.05901554 -0.1855218 -0.1845233
0000d0 57 7a b1 bc 82 8a 09 be cc 92 31 be 30 6d 22 be
       -0.021664781 -0.13431743 -0.17341155 -0.15861964
0000e0 8c 04 d3 3d 09 e9 3b 3e 68 a0 9d 3c 8c 46 86 3d
       0.103036016 0.18350615 0.019241527 0.065564245
0000f0 f5 5c 37 3e 61 68 3d bc f1 dd a4 bd cd 27 cf 3d
       0.17906554 -0.01156053 -0.080501445 0.10115013
000100 55 89 41 3e 5b 0b 7e 3d 95 2a 88 3d 7d 76 17 be
       0.18900044 0.06202255 0.06648747 -0.14791293
000110 86 77 ba bd 19 05 15 be 5a db 74 3d 93 25 9b 3d
       -0.091048285 -0.14552726 0.059779502 0.07575526
000120 87 82 0a be f9 90 54 3d 01 47 fc 3d bb 50 64 3c
       -0.13526355 0.05189607 0.123182304 0.013935263
000130 e8 e7 25 be 85 ce 03 be e3 eb 1b be a4 45 84 3c
       -0.16201746 -0.1287175 -0.15226702 0.016146488
000140 91 e2 30 bd dd 0c c2 bd 8d 0a 7c 3d 2b de 8d bd
       -0.04318482 -0.0947511 0.0615335 -0.06927141
000150 b1 22 0a be 8b b4 ae bd dc 30 96 3d 0b a7 e7 3d
       -0.13489796 -0.085305296 0.07333538 0.11311158
000160 10 ae d3 3d 42 d8 f0 3d 45 67 8a bd 51 56 38 3d
       0.10335934 0.11759998 -0.06757978 0.045004193
000170 24 1c 41 bd 5c 2a 09 be 67 a2 38 bd f9 5e 59 bd
       -0.047145978 -0.13395065 -0.045076754 -0.05306909
000180 ae 2c 16 be cb bc 36 be 9f 5d 2d be dc 79 5d bd
       -0.14665481 -0.17845456 -0.16930245 -0.054071292
000190 4b 26 53 3d c1 db 1e be bd 83 32 3d 9b 3e c5 3c
       0.05155019 -0.15513517 0.043582667 0.024077704
0001a0 49 f4 29 3e 2a 6f 64 3d 4c 50 9d bd 3b 9a 11 be
       0.16597094 0.055770077 -0.07681331 -0.1421899
0001b0 12 ba e9 3d b3 43 8a bd 68 37 e7 bd 98 1b 0f 3d
       0.11412443 -0.06751194 -0.11289865 0.034938425
0001c0 2f e9 1e be 16 5e 73 bd 83 ec 13 3e e4 ec 78 3d
       -0.1551864 -0.0594159 0.14445691 0.06077279
0001d0 44 3d 07 bd c4 76 0f 3e f1 cb 0b 3e c6 b1 1a 3e
       -0.03301741 0.14010149 0.13652016 0.15106878
0001e0 90 d7 42 be 14 8c 2f bd de b5 e5 3d a7 94 34 3e
       -0.19027543 -0.0428582 0.11216329 0.17634831
0001f0 84 d0 92 bd 66 97 3e be da 28 65 bd 26 51 f9 3d
       -0.071686774 -0.18612441 -0.055947162 0.12173681
000200 de eb ed 3d a8 ed e2 bd 5c 4b 23 be 5f 0a 8a 3d
       0.11617254 -0.110804856 -0.15946716 0.067402594
000210 06 57 3f 3e 70 e2 cb 3c dc 7f da bc 99 07 08 3e
       0.1868554 0.024888247 -0.026672296 0.13284148
000220 af 99 78 bd f2 2e 3a 3d dd 9a 05 be db 05 36 be
       -0.06069344 0.045454927 -0.13047357 -0.17775671
000230 da f4 12 3e de d3 22 bd 79 dd 25 bd 4f 9b fe 3d
       0.14351216 -0.039752834 -0.040494416 0.124319665
000240 54 74 4d 3e 20 8a 83 bd 15 2c b8 bd 99 56 ad bd
       0.20063907 -0.0642283 -0.08992783 -0.08463783
000250 cc 31 23 bd 05 4e 39 3e 05 be 08 3e b8 d1 0b be
       -0.039842412 0.18096168 0.13353737 -0.1365422
000260 b2 e5 38 bd 44 9b 2e 3b 86 ac 30 be 11 c6 f5 3b
       -0.04514093 0.0026642838 -0.17253312 0.007500418
000270 c1 b1 61 3d c8 28 2a 3e 14 04 d0 3d 6a ad 8f bd
       0.05510116 0.1661712 0.10157028 -0.07015498
000280 db b9 17 be 72 10 2c be a3 81 01 3e 64 c4 b9 3d
       -0.14816992 -0.16803148 0.12647109 0.09070662
000290 dc b7 c4 bd 59 d0 bd 3d 68 76 d0 3d ed 5a b9 bd
       -0.09605381 0.09268255 0.10178834 -0.09050546
0002a0 27 51 ce 3d f1 7b b3 3d fc 3a 24 be 59 d2 c9 bc
       0.10074072 0.08763874 -0.16038126 -0.024636434
0002b0 65 38 17 3e d5 d5 17 3e 23 83 09 3d 82 f4 e7 3d
       0.14767607 0.14827664 0.033572327 0.11325933
0002c0 a5 70 3c be a0 d4 2b bd c7 ff 1a be 56 df 1c be
       -0.18402345 -0.041950822 -0.15136634 -0.15319571
0002d0 17 2d 0f 3e 43 5d c6 3b 4d 90 c6 bd 14 56 aa 3d
       0.13982044 0.006053598 -0.09695492 0.08317199
0002e0 2b 28 08 be fa e6 0e be ef e7 3d bc 8f 77 80 3d
       -0.13296573 -0.13955298 -0.011590942 0.06272804
0002f0 da 3a 14 bd c1 81 47 bc 5c 53 cc 3b f7 cc f4 3d
       -0.036188938 -0.012176932 0.006235523 0.119531564
000300 94 bf 60 bd 02 dd 43 3e ef bc b2 39 0f 11 44 3e
       -0.054870203 0.19127277 0.00034091572 0.19147132
000310 64 73 b7 3d c9 b7 22 3e f0 bf c9 bd 1f a8 03 3e
       0.08957556 0.15890421 -0.09851062 0.12857102
000320 25 c2 c6 3d c4 d5 2a be d1 9a 18 bd 68 57 0d 3d
       0.09704999 -0.16683108 -0.03725702 0.034507185
000330 bd e1 32 be fe 2a 9c 3d ec 82 17 3e 3f 8a 17 be
       -0.17468925 0.076253876 0.14796036 -0.1479883
000340 c5 c8 ef bd 97 f4 df 3d c8 6f 91 bc 35 9a c9 bd
       -0.117082156 0.10935324 -0.017753497 -0.09843866
000350 c8 d6 ed bb 2d 7d fa bd ec 46 2c bc bb ca 41 3e
       -0.00725827 -0.12230907 -0.010514956 0.18924992
000360 bb f7 1b 3e 46 be 71 3d ce 65 30 be f7 16 42 be
       0.1523122 0.05901935 -0.17226335 -0.18954073
000370 35 e5 1b 3e 0e 60 3c be e6 5a 6e bc f9 6b 9b 3d
       0.15224154 -0.18396017 -0.014548039 0.075889535
000380 64 25 29 bd 32 d0 18 bc c4 19 e5 3d 45 4f 13 3e
       -0.041295424 -0.009326981 0.11186555 0.14385708
000390 22 cd e9 3b 4a 34 2a 3d c4 cc a4 3d c2 08 7a 3d
       0.0071350494 0.041553773 0.080468684 0.06104351
0003a0 68 0d 2b be 6f aa 40 bd 98 87 1e 3e ba 01 95 bd
       -0.16704333 -0.04703754 0.15481412 -0.0727572
0003b0 be 1e 2b 3d 32 3e 0d 3d 1a 11 c6 bd 12 73 89 bd
       0.041777365 0.034483142 -0.096712306 -0.06711401
0003c0 88 95 b4 bd 45 59 b6 bc 02 83 d6 bd e5 c6 a2 3d
       -0.08817583 -0.022259364 -0.104742065 0.07948092
0003d0 de e4 20 3d ac 47 41 be 75 bb 05 be 1d a9 8d 3d
       0.039280765 -0.18874997 -0.1305979 0.069170214
0003e0 c3 c7 36 3d 32 ce dd bd cf cd 1a be 39 d3 00 be
       0.0446241 -0.10830344 -0.15117572 -0.12580575
0003f0 66 1c cf 3d 5d 74 c5 bc 60 ce 2d 3e e9 cc d6 3d
       0.101128384 -0.024103338 0.16973257 0.10488302

conv1.bias f4 [64]
000000 28 49 da bd f8 26 24 3e 20 bf a2 bd 0f 82 74 3c
       -0.10658485 0.1603049 -0.079466105 0.0149235865
000010 dc fc 16 3e 84 3e 35 bc 2d 6e 1a 3e b7 65 3e bd
       0.14744896 -0.011062268 0.15081091 -0.04648372
000020 31 be fe bd b4 d8 25 bd 7b 42 9b bd 1a 48 8a 3d
       -0.1243862 -0.040489867 -0.075810395 0.067520335
000030 36 98 21 be 16 68 f5 bd bf a6 5a 3d f8 84 94 3d
       -0.1578072 -0.119827434 0.053381678 0.07251924
000040 1a ad ab bd 89 37 75 3c b2 0b 0e be c0 00 36 be
       -0.08382626 0.014966854 -0.13871649 -0.17773724
000050 ec 56 62 3d 28 13 b6 bd 68 ee ee 3d 99 28 3d be
       0.055258676 -0.088903725 0.11666566 -0.18472518
000060 97 26 3f 3e 22 41 2e be f1 22 27 3e 10 ea c8 bd
       0.18667065 -0.17017034 0.16321923 -0.09810269
000070 be 49 f5 3c ef 58 4d 3e 36 a9 3a 3d a9 a2 bf bc
       0.02994239 0.20053457 0.04557153 -0.023392992
000080 4c c8 2f be f6 f0 9d 3d 38 20 2f bd 2d ca 0e 3e
       -0.17166251 0.07711975 -0.042755336 0.13944311
000090 c0 a3 02 3e 00 89 c3 3d 0b f2 7b bd 65 3d bb bd
       0.12757778 0.09547615 -0.061510127 -0.091425695
0000a0 3a 99 94 3c ac 76 21 bd f9 17 c1 bd 01 91 ba 3c
       0.01813947 -0.039419815 -0.094284005 0.022774221
0000b0 de b7 17 3e 30 60 01 3e e1 52 30 3d f6 25 e9 3d
       0.14816234 0.12634349 0.04304779 0.113841936
0000c0 00 3c f7 3d 7d 81 81 3d 3f 40 fc bd 92 3c ef bd
       0.12071991 0.06323526 -0.123169415 -0.11681475
0000d0 8d 1c 21 3d 9d 51 16 be eb be c7 bd 4d e2 a5 3d
       0.03933387 -0.1467957 -0.097532116 0.08099804
0000e0 e3 f3 a3 bc e1 33 52 3d c0 4b ad bd 30 de 1a 3e
       -0.020013755 0.051319007 -0.08461714 0.1512382
0000f0 f8 df 46 3d 17 4b ff 3d 38 74 12 bd 3d ba 15 bd
       0.048553437 0.12465494 -0.035755366 -0.036554564

conv2.weight f4 [128, 64, 3]
000000 c1 92 31 bd fc 00 84 bc 3a 35 6c bd 48 aa e0 bc
       -0.043352846 -0.01611375 -0.05766795 -0.027424946
000010 17 8a 90 bc a4 3a 85 bd 29 09 a7 bb 87 e0 d8 3c
       -0.017643971 -0.065053254 -0.0050975275 0.02647425
000020 82 33 92 bc e2 df 20 bd 66 d6 6e bd 7f 23 61 3d
       -0.017846826 -0.03927601 -0.058309935 0.054965492
000030 16 90 30 bd 40 9c 39 3d da 85 84 3d 5f 0c 4e bd
       -0.04310616 0.045315027 0.06470843 -0.050304767
000040 72 99 b4 bc 87 30 45 3d 18 c4 43 bc c2 93 42 3d
       -0.022045825 0.048141982 -0.011948608 0.047504194
000050 a9 d1 d6 3c 56 3f 31 bd e4 a2 07 3c ad 92 db 3c
       0.02622302 -0.043273292 0.008278582 0.026803339
000060 c7 be 48 3c 08 68 2f 3d e9 ca 60 3d 2e 41 11 bd
       0.012252516 0.04282382 0.05488101 -0.03546255
000070 07 83 6d 3d b5 42 75 3d 17 79 7e 3c a3 a0 5b bc
       0.057986286 0.05987807 0.0155318 -0.013404998
000080 43 8a a2 bc 61 e2 7b bd e3 63 29 3d b7 63 3d 3d
       -0.019841319 -0.06149519 0.041355025 0.046237674
000090 28 05 75 3d b7 6d 9d bd 12 76 96 bd 8d f8 03 bc
       0.05981937 -0.07686942 -0.07346739 -0.008054865
0000a0 d7 2d f7 bc 81 ca 13 bd f4 28 09 bd fc c1 f0 bc
       -0.030173225 -0.036081795 -0.03348632 -0.029389374
0000b0 49 fe 98 bc 6e c9 54 3d 0a c1 ea bb 78 99 57 bd
       -0.01867594 0.05194991 -0.0071641253 -0.052636594
0000c0 e1 be ed bc 6b 10 1c 3d 77 c2 5b 3c 93 a7 64 bd
       -0.029021682 0.038101595 0.013413063 -0.055823874
0000d0 c9 89 29 bd 82 a3 44 bd cc 83 06 bd 53 30 a7 bc
       -0.041391168 -0.048007496 -0.032840535 -0.020408785
0000e0 18 b8 a9 b9 12 0a 91 3d 2c 35 80 3c c4 3f 52 bd
       -0.00032371352 0.07081999 0.015650354 -0.051330343
0000f0 f0 b6 47 3d a9 0e 5a 3d e5 f4 5c bb d2 b4 cc 3c
       0.048758447 0.053236637 -0.0033715304 0.024988566
000100 d2 94 22 3c d8 02 07 bd 2d 31 f0 3c 89 dc f8 3a
       0.009923177 -0.032961696 0.029320324 0.0018986623
000110 77 7a ce 3c a6 5c 92 3d 33 0f 84 3d 1e e9 1e 3d
       0.02520488 0.071465775 0.064482115 0.038796537
000120 26 b1 8c 3c d6 35 fa 3a 48 4d 6d 3d 2b 46 54 bd
       0.017174315 0.0019089531 0.05793503 -0.05182473
000130 9e 1a 7c 3d f2 59 04 3b 40 4b 22 3d 0f 43 38 3d
       0.06154882 0.0020195213 0.039622545 0.044985827
000140 f6 79 8e ba f2 07 10 bc 40 9c c1 3c fd d4 6b bd
       -0.0010870087 -0.008790957 0.023634076 -0.05757617
000150 86 14 86 bd 58 d1 24 bc 6b 26 8b ba de 25 60 3d
       -0.06546883 -0.010059677 -0.0010616308 0.054723613
000160 27 da 89 bd 13 df 8b 3c e8 6b 77 bc dc 67 15 bd
       -0.067310624 0.017074144 -0.01510141 -0.036476
000170 db 85 3d bd ff 86 a1 bd 17 72 0f 3d 7c 5f 42 3d
       -0.046270233 -0.078870766 0.035020914 0.047454342
000180 a8 aa db 3c 32 30 5f bd e7 30 53 3d d3 94 64 bd
       0.026814774 -0.054489322 0.05156031 -0.055805992
000190 3f 30 85 bc ed ba 26 3d 50 ab e7 3c 67 cd a5 bd
       -0.016258357 0.04070561 0.02827993 -0.08095818
0001a0 dc 25 75 3d 94 ed 77 3c c3 35 76 3d 13 d1 34 bc
       0.05985056 0.015132327 0.060109865 -0.011036175
0001b0 52 5a 25 3d f1 ee 31 bd ea d5 7f bd 83 e9 0a 3d
       0.04036934 -0.043440763 -0.062459864 0.0339141
0001c0 18 a5 9b 3c 06 f4 43 3d c1 69 8f bd 8d 5e 3e 3c
       0.018999621 0.04784014 -0.07002593 0.011619222
0001d0 00 42 bc 3c 21 b2 73 3c 13 b9 09 3d 3a 7a 32 bd
       0.02298069 0.014874012 0.033623766 -0.043573596
0001e0 73 a9 22 3d a9 e5 18 bd 77 d3 86 bd 03 ab 44 3b
       0.03971238 -0.037328396 -0.065833025 0.0030009157
0001f0 91 3d 42 bd a4 9d e8 bc 24 05 9a 3b b9 31 f1 bc
       -0.047421996 -0.028395481 0.00470032 -0.029442655
000200 e9 2a 30 bd ca 90 5f bd 9c d3 e8 3c 8a 5d 93 3d
       -0.043009672 -0.05458144 0.028421216 0.071955755
000210 f8 d6 05 3d d3 5e 9f bd 73 f1 4e bd 8b a2 24 3d
       0.032675713 -0.07781758 -0.050523233 0.040194076
000220 23 4a 7b bd 6d 14 0f 3d a1 4f 0a 3c 70 60 3e bd
       -0.06135 0.03493159 0.008441837 -0.04647869
000230 00 65 7e 3c 06 67 1a bd da b9 68 3d bd cc ab bc
       0.01552701 -0.037695907 0.056817867 -0.02097165
000240 1d f0 35 3c 18 c2 2f 3d 24 30 78 3d 87 01 ca 3c
       0.011104611 0.04290971 0.060592785 0.024658931
000250 22 6b e9 bc 4a 12 c0 3c 13 3f 83 bd 55 64 85 bd
       -0.028493468 0.02344622 -0.06408515 -0.065132774
000260 09 cb 51 3d f0 e1 f5 3c 4f c1 9c bc a1 b5 89 bd
       0.05121902 0.030014962 -0.019135145 -0.06724096
000270 fb 96 18 3d ab a2 c1 bc 3e cf 24 3d 8e e0 63 bd
       0.03725336 -0.023637136 0.040236704 -0.055634074
000280 31 23 69 3d f7 75 36 3d 67 82 87 bd 87 02 5d bd
       0.056918327 0.044546094 -0.06616669 -0.05395749
000290 dc 91 78 3d 2c fc 23 3d ee 31 32 bd 2b 8f 9d 3c
       0.060685977 0.04003541 -0.043504648 0.019233307
0002a0 6f 54 22 bd e7 7f 2b 3d 9c 88 32 bc f2 20 0a bc
       -0.039631303 0.041870024 -0.010896828 -0.008430706
0002b0 c7 ad 20 bd 51 e3 70 3d 94 32 7a 3d 3b 0e 13 bd
       -0.039228227 0.058810536 0.06108339 -0.035902243
0002c0 99 80 75 bd 62 04 05 3d 98 fa 14 3d a4 91 88 bc
       -0.059937093 0.032474883 0.036371797 -0.01667101
0002d0 e1 f0 af 3c cd d9 dc bc 14 75 f2 3c f7 93 26 bd
       0.021477165 -0.026959324 0.029596843 -0.040668454
0002e0 e2 11 9d bd c1 97 75 3d 66 78 03 bd 46 59 1b bd
       -0.076694265 0.059959177 -0.032097243 -0.037926935
0002f0 49 d7 ff 3c aa a3 6a bd b1 c9 48 3d 94 4d 1f 3d
       0.031230586 -0.05728499 0.049020473 0.038892344
000300 d3 c3 53 bd 7d fd 66 3d 16 f4 bb bb 0b ae 23 bd
       -0.051700424 0.05639409 -0.0057358844 -0.039960902
000310 0e 14 f3 bc e1 8f 31 bd 78 57 81 bb e9 61 75 3d
       -0.029672649 -0.043350104 -0.0039471947 0.059907828
000320 15 28 72 3c 4e 56 c1 3c c4 e6 9c 3a 14 95 3f 3d
       0.014780064 0.023600724 0.0011970629 0.04677303
000330 a1 21 7a 3b 5c c2 16 3d 79 04 49 bd 76 85 fa bc
       0.0038167017 0.03680645 -0.04907653 -0.030581217
000340 80 c3 48 bd ea 3e 5d bd 0d 0a 4d bc 14 2d c7 ba
       -0.04901457 -0.054015078 -0.012514603 -0.001519593
000350 ce b7 8c bd 60 4b 90 bb f7 c0 1b 3b 25 b4 75 3b
       -0.068709955 -0.0044035167 0.002376614 0.0037491408
000360 67 68 d6 bc 0f 18 8b bd f8 d3 30 bd 3c 9c ee 3a
       -0.02617283 -0.06791698 -0.0431709 0.001820452
000370 bd fc 1a 3c f4 00 93 3c 58 8b 6f bd 49 91 5f bd
       0.009459672 0.01794479 -0.058482498 -0.054581914
000380 8a cc ac bd 52 93 cf 3c ba ff 22 3c f2 cb 6a 3d
       -0.0843745 0.025338802 0.009948665 0.057323404
000390 1b 14 3d 3d 9e 62 ae bb f5 1e 8d bd 9a 1f eb ba
       0.046161752 -0.0053218147 -0.0689067 -0.0017938495
0003a0 cd 70 1d 3c 56 f2 e9 3b 29 33 4a 3d 18 74 f7 bc
       0.009609413 0.0071394844 0.049365196 -0.030206725
0003b0 15 04 7a bd 6f 95 7e 3d 66 3d b2 3c b8 01 cf 3c
       -0.06103905 0.06215423 0.021757793 0.025269374
0003c0 c9 f3 23 bd 52 14 71 bc c5 61 1d bd 06 3e 58 bd
       -0.040027414 -0.014714317 -0.03842332 -0.052793525
0003d0 25 55 1a bd fc c6 cd bc bd 78 b0 3c d3 bb 53 bd
       -0.037678856 -0.025119297 0.021541947 -0.051692795
0003e0 a7 1e a7 bd 59 b0 cd bc 6c 39 e5 3c 15 83 d6 3c
       -0.08160143 -0.025108503 0.027981482 0.026185552
0003f0 e0 21 f2 bc 7a a5 3b 3d 7d 92 64 3d 86 d8 47 bc
       -0.029557168 0.045812108 0.055803765 -0.012197619

conv2.bias f4 [128]
000000 15 1c 4e bb 6c b7 c5 3a 59 65 eb bc d1 7b 67 3d
       -0.0031449844 0.0015084571 -0.02873485 0.056514565
000010 93 18 08 3d f7 bf c3 3c 03 0f b4 bb a1 fe 19 3b
       0.03322656 0.023895247 -0.0054949536 0.0023497718
000020 fe 20 1e bd 3e 9d f0 3c 7c 46 6d 3b 48 08 3f bd
       -0.038605683 0.029371854 0.0036205342 -0.046638757
000030 74 5d 8f bd 59 01 f3 3b 9a c7 2d 3d 56 76 13 3d
       -0.07000247 0.007415932 0.042426683 0.036001526
000040 cf 94 78 bc 5f fd bd bc 00 e3 51 bd 0c 8a 8b bd
       -0.0151721975 -0.023192106 -0.051241875 -0.0681344
000050 0e 9e 9b bd b6 27 6d bd ad fe 2d bd a2 b6 83 bb
       -0.07598506 -0.0578992 -0.042479206 -0.0040195743
000060 74 46 89 bd 57 87 08 3d 3a 6c 1b bd fb c6 65 3d
       -0.06702891 0.033332195 -0.03794501 0.056097966
000070 9b e3 13 3c ff 3f 9b bd 71 eb 22 bd 08 16 cb bc
       0.009026433 -0.07580566 -0.039775316 -0.024790779
000080 28 9f fb 3c 44 7a 1d bd 11 75 d5 3c ab 47 42 3d
       0.03071554 -0.03844668 0.026056798 0.04743163
000090 68 94 9e bd 06 61 69 3d 89 bd cd bc 7a d9 13 bd
       -0.0774315 0.056977294 -0.025114791 -0.036096074
0000a0 87 85 26 3d f7 4a 54 3d 46 15 08 3d 93 d5 15 bd
       0.040654685 0.051829305 0.033223413 -0.036580633
0000b0 11 06 08 bd 0f bf 8d 3c ee e8 1e 3d 76 99 bd 3c
       -0.03320891 0.017303018 0.038796358 0.023144465
0000c0 5b 3b 37 3d 28 25 bc 3b b5 ad 20 bd 20 8c 66 3c
       0.04473434 0.005741734 -0.03922816 0.014071494
0000d0 65 42 82 3c 77 31 ec bc ab 48 11 3d 55 02 27 bd
       0.0159008 -0.02883218 0.035469692 -0.04077371
0000e0 e6 d2 df bc b4 8b 3e 3d 92 a8 5a 3d 76 e1 46 3d
       -0.027322244 0.04651995 0.053383417 0.04855486
0000f0 e7 85 ae b8 c2 05 cd 39 7b 3d 53 bd 8a 68 28 3d
       -8.321908e-05 0.00039104937 -0.051572304 0.04111532
000100 df 94 8f bd 07 62 a4 bc be 66 fa bc 3b 72 77 3d
       -0.07010817 -0.020066274 -0.03056657 0.060411673
000110 b7 17 56 bb 93 29 70 3d 3f f6 03 bd ef 54 22 3d
       -0.0032667944 0.0586334 -0.03221726 0.03963178
000120 9f 92 3f bd ee 3a 13 bd 9c 59 1e bd 73 f2 9a bc
       -0.04677069 -0.03594487 -0.038659677 -0.018914437
000130 77 e0 42 3d e5 b0 61 3d 4c 19 26 bd 61 0f 3b 3c
       0.047577348 0.05510034 -0.04055147 0.011417241
000140 6d c2 47 bd 3e 17 d0 bc 20 d1 08 bd 80 bd 81 bd
       -0.048769403 -0.025401708 -0.033402562 -0.063349724
000150 c2 35 f3 bc 9f 0b 32 bd 86 24 61 3d 3b ba 62 3d
       -0.02968872 -0.043468114 0.054966472 0.055353384
000160 42 48 2f 3d 5c b4 4b bc e5 b4 62 3d e2 f2 85 bd
       0.04279352 -0.012433138 0.055348296 -0.06540467
000170 0c f7 00 3d 85 3c 7c 3d 72 e0 0f bd 67 a2 03 bd
       0.031485602 0.061581153 -0.035126157 -0.0321373
000180 31 ce a5 bd 4b 49 93 bd e6 8d 4b 3d 77 e8 40 3d
       -0.080959685 -0.07191714 0.04969587 0.047096696
000190 01 35 46 bb 35 fb fd 3c 58 d2 cc 3c d0 59 57 bd
       -0.0030243995 0.031003574 0.025002643 -0.052575886
0001a0 47 b3 29 bc 6d 4f 5e bd 34 b6 28 3d 05 6a 12 3d
       -0.010357684 -0.054274965 0.041189387 0.03574564
0001b0 eb 50 41 3d eb 29 25 3d ec 5e 89 3d b6 80 58 3c
       0.04719631 0.04032318 0.06707558 0.013214281
0001c0 a0 e7 3a 3d fa df 12 bd 0d 2c d7 3b 0e 36 8c bc
       0.04563105 -0.035858132 0.0065665306 -0.017115619
0001d0 91 10 3d 3d 85 ba a4 bd 09 64 bf 3c 15 ad 47 3c
       0.046158377 -0.08043388 0.02336313 0.012187262
0001e0 df c5 c5 3b 2a 6f a4 bd 38 6c cc 3c ee 7e ab 3c
       0.006035551 -0.08029015 0.024953946 0.020934548
0001f0 1c 37 1a 3d af d4 99 bd 7d 2d 46 bd c1 ac 61 3d
       0.037650213 -0.07511269 -0.048383225 0.05509639

fc.weight f4 [5, 12800]
000000 be eb 21 bb 36 9f 14 3c ea 59 26 3c fb 1a c3 3a
       -0.0024707164 0.009071162 0.010153273 0.001488536
000010 1f 80 8e 3a 9b d7 5f 3c c8 bf 31 3c 65 e3 9c 3b
       0.0010871923 0.013662244 0.010848947 0.0047878497
000020 42 1a 32 3b 2d 0e 99 3b 40 6a 75 3b 4f 08 9e 3b
       0.0027176295 0.0046708793 0.0037447363 0.004822768
000030 0d bd 94 3b 05 2b 65 3c 0d de 1b 39 0f d0 01 39
       0.004539138 0.013987307 0.00014864672 0.00012379907
000040 8e 90 3b ba 9d 15 ca ba 8b 37 01 3b 99 04 16 3c
       -0.0007155024 -0.0015417818 0.0019716944 0.00915637
000050 d2 e7 c5 ba 11 e8 2c 3c b3 14 29 3b f0 08 53 3b
       -0.0015098995 0.010553376 0.0025799691 0.0032201372
000060 e1 bc 45 3c 8e 55 b9 3a 16 a9 06 3c 50 4e 3b 3c
       0.012068958 0.0014139877 0.008219024 0.011432245
000070 23 ed 47 3b 3e 6c 0e 3c e9 71 4d 3b ba d6 4c 3c
       0.0030506335 0.008692799 0.0031348413 0.012502367
000080 b3 4a 4f 3c fd c6 70 3c 1b e8 4c 3b a0 5c 0d 3c
       0.012652087 0.01469588 0.0031266275 0.008628041
000090 44 76 8e ba 7c 02 46 3c 6c e8 5e ba b4 e7 74 3c
       -0.0010868986 0.012085553 -0.00085032615 0.01494782
0000a0 de df 70 3c 18 64 9b 3b da 93 84 3b 64 c3 82 3c
       0.014701812 0.0047421567 0.0040459456 0.01596231
0000b0 be 0c 90 3b 65 5d 3d 3c 91 ec 62 3c bc df f2 3b
       0.0043960502 0.0115579115 0.013850347 0.007411925
0000c0 31 40 0e 3c d5 75 b4 3b ba 9d 95 ba 5e 18 bc 3b
       0.008682297 0.0055072107 -0.0011414804 0.0057402095
0000d0 7a b8 6a 3c bb 42 8c 3a 1d 55 3d 3c 0c 9e 54 ba
       0.014326209 0.001070104 0.011555937 -0.0008110709
0000e0 2e 8e da 3b da af 7f 3c 82 86 c7 ba 08 dd 6d 3c
       0.006669781 0.015605891 -0.0015222582 0.01451803
0000f0 2e 99 32 3c 56 ee 79 3c 51 74 34 3c 4c 2a d5 3b
       0.010900779 0.015254578 0.01101406 0.0065052863
000100 1f 94 a8 3a 51 b9 52 3c 6e 58 50 3b 17 4a 24 3c
       0.0012861526 0.012861566 0.003179099 0.01002743
000110 c0 b0 24 3c 30 46 cb 3b 55 aa 5b ba 8d 05 94 ba
       0.010051906 0.0062034354 -0.00083795685 -0.0011293158
000120 00 36 3d 3b 22 bc e7 3b 18 e3 25 3b 42 0b 08 3c
       0.0028871298 0.0070719877 0.002531236 0.008303465
000130 e7 7b ac 3b 71 f4 a9 3b 20 ad 0b 3c c4 c5 47 3b
       0.0052637937 0.0051866104 0.008525163 0.0030482868
000140 1e f9 38 3c 0e 1a 4c 3c a2 38 0f 3c ad ea 82 3c
       0.011289863 0.012457384 0.00874153 0.015981043
000150 bf a6 7d 3c 29 4a 3c 3c e4 87 f5 ba 1a 87 35 3c
       0.01548165 0.0114922905 -0.0018732515 0.011079574
000160 30 d3 16 3c af 91 97 3b 80 80 4d 3c c7 6d 67 3c
       0.009205624 0.004625521 0.012542844 0.014125294
000170 c4 47 8d 3b 7b 90 a1 3b 3c 02 8b ba 44 37 2a 3c
       0.0043115336 0.0049305535 -0.0010605524 0.010389153
000180 8a cc 44 3c be 1e 59 3b bd 6a 41 3c 52 82 8b bb
       0.012011657 0.0033129896 0.011805234 -0.0042574788
000190 aa 08 ab bb 7c 15 e7 ba ab 88 9f 3b 8a 92 cd bb
       -0.0052195387 -0.0017630304 0.004868587 -0.0062735723
0001a0 a1 cc 05 3c a7 b9 f3 3b 04 f3 7d ba c2 cf 14 bc
       0.008166463 0.007437903 -0.0009687396 -0.009082736
0001b0 bd fb d7 3a 69 3a ec 3b da 89 77 39 9c a6 16 3b
       0.0016478222 0.0072091115 0.0002360711 0.002298749
0001c0 e2 8c 8f bb 81 5e a8 b9 1e 42 86 3b 89 f7 ec 3b
       -0.004380808 -0.00032113868 0.0040972373 0.007231657
0001d0 85 0c 91 bb 1e da cb 3b d8 82 f1 3b 35 5b a2 3b
       -0.0044265413 0.00622107 0.007370334 0.0049547204
0001e0 59 fd 1e 3a eb e7 aa ba 12 e8 b0 bb d6 91 8f 3b
       0.00060649734 -0.0013039088 -0.0053987587 0.0043813987
0001f0 53 74 11 bb 26 5a a0 bb 57 6b 40 3b f3 d7 14 3a
       -0.0022194579 -0.004893559 0.0029360855 0.0005677931
000200 2b 21 a3 ba 6d 51 16 bc 65 bc f3 bb d3 f5 af 3b
       -0.0012445798 -0.009174687 -0.00743823 0.0053698807
000210 dc 08 f9 39 f6 e3 db b9 b6 d3 6e bb a0 ab 0e bb
       0.00047499582 -0.0004194078 -0.0036442108 -0.0021769777
000220 9c 65 1f 3b 76 8e ca 3b 24 ad 40 bb 6f b8 d6 3a
       0.0024322039 0.0061815334 -0.0029400075 0.001638187
000230 61 69 c7 3b 4d 58 29 3b d7 91 13 bc d2 da 61 3b
       0.00608556 0.0025839985 -0.009006939 0.0034462702
000240 8f d6 0b bc ff 45 5c 3b a9 29 06 3c ee f0 bc 3b
       -0.0085350415 0.0033611057 0.0081886435 0.0057660257
000250 f6 97 c0 bb eb 6d 65 3b bf d4 04 3c 4f 2e 17 bc
       -0.00587749 0.0035008143 0.008107363 -0.009227349
000260 be 21 00 bc f6 89 69 3b d6 67 fa 3a 11 3e 1f 3b
       -0.007820545 0.003563521 0.0019104432 0.002429847
000270 84 26 03 bb 5e 10 05 3b 12 2c e5 3b d8 1a 03 3c
       -0.002001197 0.0020303945 0.006993779 0.0080020055
000280 4b 5a 4e 3b 20 62 c2 bb 43 12 bf 3b f8 83 e2 bb
       0.0031486924 -0.0059321076 0.0058310344 -0.0069127046
000290 a8 34 e0 bb 2b 98 d0 3b 64 0f 18 3a 50 1f 05 39
       -0.0068422146 0.006365796 0.0005800633 0.00012695533
0002a0 92 d9 80 3b 91 8a d6 bb de 9b ea 3b 19 fc 36 bb
       0.0039321864 -0.00654728 0.007159694 -0.0027921258
0002b0 c0 a6 2d 3b 22 35 d5 b9 c1 f6 7b 3a 27 3b a7 b9
       0.0026497096 -0.00040666113 0.00096116593 -0.00031896794
0002c0 81 8a f6 3b 72 27 b6 3b 32 9c c4 3a bc ab d4 bb
       0.007523835 0.0055589015 0.0015000163 -0.006490199
0002d0 e6 0a a8 3b 20 1f 63 3b ac 73 f1 ba de bc e3 bb
       0.0051282523 0.0034656003 -0.0018421314 -0.006950005
0002e0 6e ba 98 3b 4a 4f 6e 3b 9b 4a e2 bb 03 9c 95 bb
       0.004660896 0.0036363178 -0.0069058663 -0.004565717
0002f0 88 89 6f bb 97 0f 25 3b 6c 6f cc bb ae c4 86 3a
       -0.003655048 0.0025186294 -0.0062388685 0.0010282004
000300 90 bb 8b 3a cb b6 89 38 05 ff 1c bb 4c 3f 07 bb
       0.0010660756 6.566717e-05 -0.0023955714 -0.0020637093
000310 cf ca 18 3b e7 cf 02 3c ac 9a 82 bb 16 07 bb 3a
       0.0023314243 0.007984138 -0.0039857235 0.001426908
000320 53 c2 95 3b 36 24 47 bb 66 e9 98 3b 74 86 0b bc
       0.0045702844 -0.0030386574 0.004666495 -0.008515943
000330 cf 2e d0 bb ce 1b c4 ba 9e fc 3e 3b 85 ab 0e bc
       -0.0063532363 -0.00149619 0.002914227 -0.008707886
000340 6f a7 e5 bb 45 49 eb 3b da 30 03 3c e1 bf f4 bb
       -0.007008485 0.0071803653 0.008007253 -0.007469163
000350 fe a2 ff bb f6 cc 84 3b 35 75 de bb 87 a1 99 bb
       -0.0078014126 0.0040527536 -0.0067888745 -0.004688445
000360 98 ed f1 3b 57 eb c6 bb 6e 05 09 bc 30 ad 6e 3b
       0.0073830597 -0.006070535 -0.008363111 0.0036419146
000370 8d a3 c6 3a b4 44 84 bb 13 7b 58 b8 4a 4a 8e 3b
       0.0015154943 -0.0040365104 -5.1613035e-05 0.004342352
000380 e4 df 07 bb d3 45 0b bc af 65 75 bb e9 85 21 3b
       -0.0020732814 -0.008500534 -0.0037444641 0.0024646467
000390 0b a7 ce 3b 7e be 2e 3b 3f 16 00 3c 22 67 0d ba
       0.006306534 0.0026663835 0.007817804 -0.0005394091
0003a0 fe ab f2 bb ef a9 99 3b 3b 8e a8 3b 41 ec aa bb
       -0.007405757 0.004689447 0.0051439083 -0.005216152
0003b0 c7 9a 01 3c da eb 09 3c f6 42 0b 3c 74 cd 40 3b
       0.007910437 0.008418048 0.008499851 0.0029419335
0003c0 16 5e 10 3b ed 7d ae bb 2b c1 a8 bb 0c 80 cf 3b
       0.0022028736 -0.00532507 -0.0051499805 0.006332403
0003d0 a4 95 58 bb 4e 46 f6 3b 02 11 05 3c 2e 51 52 3b
       -0.0033048177 0.007515705 0.008121731 0.0032091844
0003e0 1f 05 11 bb 1d 7b 28 3b 18 f7 72 3b 18 aa 18 bb
       -0.0022128297 0.0025708147 0.003707355 -0.0023294743
0003f0 1b 11 03 bc 0c 2b 63 3b 13 8b c9 3a 3d 7e 56 b9
       -0.007999684 0.003466311 0.001537653 -0.00020455658

fc.bias f4 [5]
000000 6c 98 2c 3c bb bd ac 3b 8e 07 84 3b 97 3c 4f 3c
       0.010534387 0.005271641 0.004029221 0.012648723
000010 9c a7 61 3b
       0.0034432178
