machineLearning/surfaceDetectionEngine/data/best_model.pth (torch, 4849 bytes, 4 tensors)

fc1.weight f4 [64, 9]
-0.24621448 -0.07897624 -0.3051445 -0.036189914 -0.04025384 0.3072304 -0.19696987 -0.17226586
0.06267389 0.33633196 -0.03662327 0.25637123 0.2254194 -0.28643453 0.3269476 0.03590333
-0.18453519 0.16325597 0.22345373 0.03572162 0.29393175 -0.2228823 0.28448278 0.034762166
0.4177689 -0.13541082 -0.27666438 0.10493064 -0.032145422 -0.100618325 -0.24836442 -0.18608618
-0.19281308 0.30379876 0.10177998 0.24416113 0.3143296 -0.22802715 0.13855767 -0.2828455
0.20137958 -0.05629158 0.26508516 0.26734513 0.10266217 0.22784707 -0.081831776 -0.26553175
-0.16963951 -0.040236235 -0.13125698 0.05605825 0.07408925 -0.189049 -0.21673937 -0.061297815
0.20771648 -0.37072498 -0.18264125 0.23328136 -0.011958541 0.05120483 0.044703465 -0.14468372
-0.27108908 0.12434602 0.21587572 0.2585197 0.28846428 -0.17208707 -0.09395262 0.17434129
-0.11358865 0.26647422 -0.24481802 -0.020335097 -0.22475117 -0.2511488 -0.038848374 -0.23154347
0.21629857 0.18135843 -0.24215257 0.20612499 -0.21532938 -0.16826472 -0.010861914 0.13550031
0.10342046 -0.08998585 -0.016199827 -0.29517478 -0.29271156 -0.09173958 0.12972681 0.23942785
-0.27255604 0.29148528 0.037074447 0.06483845 0.25259846 -0.33004123 0.006212263 -0.15020266
0.15440191 -0.30816364 0.3280975 0.25278518 -0.26273236 0.17986225 0.124874085 -0.17578351
0.11165914 0.36900094 0.043810293 -0.19951828 -0.24891372 0.2147201 -0.056892913 -0.08103566
0.23466837 0.03221234 0.31388962 0.18128845 -0.23316383 0.16770968 0.35305718 0.030573562
-0.08651104 -0.14017615 -0.18750788 -0.19701642 0.35771188 -0.069925025 -0.2566142 0.42500484
0.26386598 0.20609617 -0.14270434 -0.28086734 -0.00013530262 0.35402936 -0.30555722 0.26066795
-0.21902654 -0.1837014 -0.1797559 0.12767133 0.056727886 0.20269947 -0.32168886 -0.30818474
0.08777416 0.026881022 -0.005449587 -0.037117895 0.08659429 0.17602429 0.3732908 0.047755815
0.23053406 0.28558362 0.2187032 0.21994118 -0.10012109 0.15054685 0.12493344 -0.038653024
-0.14398377 -0.0566739 -0.27304548 -0.16928515 0.081835315 -0.22594866 0.27888596 0.35366854
0.09657754 -0.4568176 0.2825054 0.16651109 -0.15216967 -0.31833598 0.25235972 -0.2100203
0.17495203 -0.15752077 0.17700025 -0.041388713 0.07952245 0.060273264 0.07144437 -0.056286722
-0.045596525 0.0034731717 -0.119429775 -0.17518207 0.35307607 -0.06981704 0.24743254 0.021842787
0.19990996 0.11242243 -0.2810488 0.15659347 -0.12777986 -0.29911655 0.056578577 0.22921339
-0.10981095 0.30888617 0.31427547 0.2155328 0.16361842 -0.1290245 -0.29740137 0.0032343157
0.043970548 -0.20193303 -0.32682276 0.3048159 -0.20638959 0.17246589 0.0018244982 -0.29781586
-0.1705327 -0.31319737 -0.20409974 -0.118264556 -0.24180111 0.10267246 -0.08971401 0.10289757
-0.26438057 -0.13217025 0.0061861677 -0.12045038 -0.2688945 0.28098398 -0.019511541 -0.057792425
0.26748928 0.23334646 -0.3187366 0.27087894 0.1387756 -0.002812293 0.28489828 0.1406477
0.06536412 0.25349736 -0.22304948 0.06173672 0.29238617 -0.13350892 0.16459748 0.052582186
00000000: a61f 7cbe 4bbe a1bd e63b 9cbe e03b 14bd
00000010: 36e1 24bd 4e4d 9d3e 78b2 49be 7666 30be
00000020: 2b5b 803d b433 ac3e 4802 16bd 1743 833e
00000030: 58d4 663e 8ca7 92be ad65 a73e 5f0f 133d
00000040: cbf6 3cbe 932c 273e 0ed1 643e d550 123d
00000050: 397e 963e 423b 64be baa7 913e c662 0e3d
00000060: cee5 d53e 22a9 0abe f4a6 8dbe e0e5 d63d
00000070: ebaa 03bd fb10 cebd 3e53 7ebe 608d 3ebe
00000080: cb70 45be 838b 9b3e 0672 d03d 6005 7a3e
00000090: cfef a03e f37f 69be 10e2 0d3e 20d1 90be
000000a0: 7336 4e3e 0092 66bd 3eb9 873e 76e1 883e
000000b0: 8b40 d23d be50 693e 6b97 a7bd c7f3 87be
000000c0: fbb5 2dbe c0ce 24bd 3b68 06be 569d 653d
000000d0: 1bbc 973d 1096 41be edf0 5dbe 6b13 7bbd
000000e0: a1b3 543e aacf bdbe 4f06 3bbe 4fe1 6e3e
000000f0: c2ed 43bc 28bc 513d fb1a 373d f827 14be
00000100: 30cc 8abe 20a9 fe3d 860e 5d3e b25c 843e
00000110: 97b1 933e 9837 30be 3b6a c0bd 8686 323e
00000120: 2ba1 e8bd 4f6f 883e 93b1 7abe ca95 a6bc
00000130: 2c25 66be 9396 80be 791f 1fbd bb19 6dbe
00000140: 5f7d 5d3e 06b6 393e d8f6 77be 6e12 533e
00000150: 4e7f 5cbe 964d 2cbe 2bf6 31bc 98c0 0a3e
00000160: 1bce d33d 804a b8bd 80b5 84bc 2621 97be
00000170: 4ade 95be f6e1 bbbd 1bd7 043e 932c 753e
00000180: 778c 8bbe 8f3d 953e 60db 173d 05ca 843d
00000190: 9654 813e 2afb a8be 3d90 cb3b bace 19be
000001a0: 891b 1e3e a0c7 9dbe 65fc a73e 0f6d 813e
000001b0: db84 86be cf2d 383e fcbd ff3d 9800 34be
000001c0: 8cad e43d b1ed bc3e 6c72 333d 854e 4cbe
000001d0: 3de3 7ebe 96df 5b3e 8b08 69bd 06f6 a5bd
000001e0: e84c 703e 16f1 033d 24b6 a03e aea3 393e
000001f0: 80c2 6ebe 16bc 2b3e e9c3 b43e 6875 fa3c
00000200: b32c b1bd 568a 0fbe 1102 40be acbe 49be
00000210: 0326 b73e da34 8fbd f062 83be 3c9a d93e
00000220: 7119 873e e00a 533e 1621 12be d8cd 8fbe
00000230: 05e0 0db9 5643 b53e ff71 9cbe 4576 853e
00000240: 7e48 60be 381c 3cbe ee11 38be 46bc 023e
00000250: 805b 683d 7390 4f3e 67b4 a4be 64ca 9dbe
00000260: f0c2 b33d 9735 dc3c 7392 b2bb ef08 18bd
00000270: 5958 b13d b63f 343e f91f bf3e 9a9b 433d
00000280: 1f11 6c3e 0438 923e bbf3 5f3e 4338 613e
00000290: 490c cdbd f428 1a3e 1add ff3d a252 1ebd
000002a0: 7b70 13be e422 68bd 9ecc 8bbe 1659 2dbe
000002b0: 4699 a73d 165f 67be 24ca 8e3e 0b14 b53e
000002c0: 72ca c53d ffe3 e9be 8ca4 903e e281 2a3e
000002d0: 5ed2 1bbe effc a2be 4b35 813e 900f 57be
000002e0: a026 333e 204d 21be 8e3f 353e 3687 29bd
000002f0: abdc a23d 19e1 763d 6d51 923d e88c 66bd
00000300: 6cc3 3abd 279e 633b 9997 f4bd ee62 33be
00000310: 63c6 b43e 3cfc 8ebd f55e 7d3e a5ef b23c
00000320: 32b5 4c3e bb3d e63d a1e5 8fbe 0a5a 203e
00000330: b9d8 02be ce25 99be f0be 673d eab6 6a3e
00000340: 90e4 e0bd 5426 9e3e b7e8 a03e a1b4 5c3e
00000350: 968b 273e 001f 04be fe44 98be d0f6 533b
00000360: 761a 343d 88c7 4ebe 5055 a7be d410 9c3e
00000370: cb57 53be e69a 303e 0024 ef3a 527b 98be
00000380: 20a0 2ebe 685b a0be 86ff 50be b034 f2bd
00000390: b69a 77be f045 d23d fbbb b7bd f6bb d23d
000003a0: e45c 87be a357 07be 56b5 ca3b b0ae f6bd
000003b0: 8aac 89be 22dd 8f3e abd6 9fbc c0b7 6cbd
000003c0: 5bf4 883e 60f2 6e3e 7231 a3be a5b0 8a3e
000003d0: 311b 0e3e 724e 38bb 30de 913e f305 103e
000003e0: a0dd 853d 68ca 813e 1567 64be a5df 7c3d
000003f0: a4b3 953e 90b6 08be 3e8c 283e 6b60 573d

fc1.bias f4 [64]
-0.10018834 0.13701774 -0.16424574 -0.117048346 0.055322528 0.225498 0.28887725 -0.15259466
-0.29326445 -0.13280416 -0.088999435 0.12639895 -0.011046157 0.24393186 0.22843798 -0.16947202
0.12505326 0.21995647 0.16581117 -0.071358025 -0.076343894 0.18234238 -0.13286918 -0.13994321
-0.034443222 0.08598813 -0.31003842 -0.22664125 -0.24289513 0.26062354 -0.12108159 0.020370185
-0.32186377 0.08333494 -0.1977348 0.30143473 0.002192908 -0.24534951 0.11399524 0.2693024
-0.3050598 -0.22213922 0.13686948 0.26130962 -0.38794497 -0.15405665 -0.009395894 -0.28098565
0.26259303 -0.2982839 0.10245967 0.13453874 0.23825334 0.053319592 0.15510903 0.119607374
0.14262669 -0.023863276 0.26900652 0.08152631 0.022599194 0.059033316 0.21649902 -0.15040998
00000000: 8b2f cdbd 614e 0c3e 0930 28be 0bb7 efbd
00000010: e099 623d f3e8 663e b8e7 933e c641 1cbe
00000020: c226 96be d0fd 07be 5645 b6bd ba6e 013e
00000030: f1fa 34bc 46c9 793e a5eb 693e 138a 2dbe
00000040: f60d 003e 453c 613e 67ca 293e 2824 92bd
00000050: 305a 9cbd f6b7 3a3e dc0e 08be 464d 0fbe
00000060: 5614 0dbd 8b1a b03d 5bbd 9ebe a514 68be
00000070: 80b9 78be 7370 853e a0f9 f7bd 60df a63c
00000080: 54cb a4be 82ab aa3d fe7a 4abe a755 9a3e
00000090: e4b6 0f3b e73c 7bbe 5676 e93d 01e2 893e
000000a0: cc30 9cbe 7778 63be 8327 0c3e 60ca 853e
000000b0: b9a0 c6be 07c1 1dbe 3cf1 19bc 5add 8fbe
000000c0: 9872 863e abb8 98be 60d6 d13d 86c4 093e
000000d0: aff8 733e a565 5a3d e7d4 1e3e b6f4 f43d
000000e0: bb0c 123e eb7c c3bc 39bb 893e 44f7 a63d
000000f0: f221 b93c ebcc 713d ebb1 5d3e 1305 1abe

fc2.weight f4 [2, 64]
-0.10233913 0.09963584 0.09200783 -0.11532308 -0.11951357 -0.110633105 0.021634553 0.048775136
0.106301755 -0.117020726 0.08044082 -0.024007306 0.119314484 -0.084794074 0.025801 0.09381387
-0.043845847 -0.073809914 -0.060951002 -0.09931069 -0.022666097 0.057709012 0.11538814 0.04961159
0.047469974 -0.039201394 0.05161272 0.009893652 -0.02375497 -0.087583214 0.06849113 -0.074320264
0.11344927 -0.08355848 -0.03493564 0.089814335 -0.043187298 -0.029773273 -0.0729483 -0.06176045
-0.115990445 -0.08908752 -0.09152272 -0.027901277 -0.052594993 -0.0558391 -0.059887603 -0.094147235
0.03973894 0.10528146 0.02209033 -0.097014666 0.016725073 0.010920058 0.028398298 -0.098467514
0.09611097 -0.005115941 0.116444096 -0.0018054796 -0.063608095 0.09751372 0.026640221 -0.04478818
-0.03804508 0.0149143115 0.0013234591 0.11286186 0.09737261 -0.03581585 -0.024656545 -0.020073012
-0.06080693 0.08766326 0.069406554 0.039830025 0.08957567 0.018989518 0.016292617 -0.062057685
-0.022035286 -0.09888302 0.017941795 -0.034593765 -0.0103340745 0.107018925 -0.024896726 -0.091234535
-0.029288128 -0.008755118 -0.009709939 0.0012444064 0.08701725 0.09469566 -0.07899712 0.053767055
-0.017331569 0.013964173 -0.0959346 0.09417111 0.07877085 0.07521061 -0.052701496 -0.01485613
-0.061941743 -0.03583714 0.0412071 0.120584816 -0.046809644 -0.05402785 0.029003281 0.10128254
0.012681052 -0.10859367 0.078435585 0.10880959 -0.07791967 -0.039799422 -0.06466917 0.06563379
0.075965255 -0.07895924 -0.0083660595 -0.046030257 0.098746374 -0.007944107 -0.08128525 -0.024270505
00000000: 2e97 d1bd e00d cc3d 9a6e bc3d 822e ecbd
00000010: 88c3 f4bd 9c93 e2bd f23a b13c 70c8 473d
00000020: bcb4 d93d 90a8 efbd 28be a43d f8aa c4bc
00000030: 275b f43d 84a8 adbd 9e5c d33c 7c21 c03d
00000040: b497 33bd a729 97bd c2a7 79bd 6763 cbbd
00000050: 40ae b9bc 4960 6c3d 9e50 ec3d 8635 4b3d
00000060: e06f 423d a491 20bd dc67 533d fc18 223c
00000070: c899 c2bc d45e b3bd 1445 8c3d 3935 98bd
00000080: 1758 e83d b520 abbd ac18 0fbd 94f0 b73d
00000090: 2ae5 30bd 14e7 f3bc eb65 95bd 87f8 7cbd
000000a0: 668c edbd 8573 b6bd 4470 bbbd 3891 e4bc
000000b0: d96d 57bd 8ab7 64bd b44c 75bd 44d0 c0bd
000000c0: 4cc5 223d ce9d d73d c8f6 b43c a0af c6bd
000000d0: 0503 893c 0bea 323c 8ca3 e83c 56a9 c9bd
000000e0: d4d5 c43d a0a3 a7bb 3e7a ee3d d8a5 ecba
000000f0: f644 82bd 46b5 c73d 983c da3c d073 37bd
00000100: 28d5 1bbd 285b 743c eb77 ad3a 1e24 e73d
00000110: 4a6b c73d a4b3 12bd 86fc c9bc 2870 a4bc
00000120: b010 79bd cc88 b33d 0625 8e3d cf24 233d
00000130: 7373 b73d e88f 9b3c 1878 853c 3330 7ebd
00000140: 5883 b4bc 2e83 cabd acfa 923c 31b2 0dbd
00000150: 4050 29bc bd2c db3d 38f4 cbbc 2cd9 babd
00000160: a8ed efbc a071 0fbc 7016 1fbc 5a1b a33a
00000170: 1a36 b23d ccef c13d 3ec9 a1bd d83a 5c3d
00000180: effa 8dbc fdc9 643c 5c79 c4bd c8dc c03d
00000190: 9d52 a13d 0508 9a3d 86dd 57bd 2067 73bc
000001a0: a0b6 7dbd f7c9 12bd c7c8 283d 2cf5 f63d
000001b0: 78bb 3fbd 4f4c 5dbd 4a98 ed3c 386d cf3d
000001c0: 30c4 4f3c 5c66 debd d6a2 a03d 90d7 de3d
000001d0: 5994 9fbd b804 23bd 4571 84bd 026b 863d
000001e0: ac93 9b3d 62b5 a1bd cc11 09bc 398a 3cbd
000001f0: 8a3b ca3d 0028 02bc e278 a6bd f0d2 c6bc

fc2.bias f4 [2]
0.046738733 0.08512623
00000000: 1d71 3f3d a956 ae3d
