machineLearning/surfaceDetectionEngine/data/best_model.pth (torch, 4849 bytes, 4 tensors)

fc1.weight f4 [64, 9]
0.20934178 -0.04678262 -0.22525339 0.27087942 0.58651155 0.07785711 -0.690361 1.1264242
-2.3034587 -0.29308775 -0.0019732183 -0.21867707 -0.7732802 -0.506955 -0.0015562079 -0.14447083
0.87098545 -0.60572577 -0.043918617 -0.09296784 0.055878773 0.029171655 -0.13656189 -0.107772306
-0.13598177 0.147939 -0.08911534 -0.45119572 0.021780953 -0.047386367 -0.12792052 -0.5958084
-0.18115374 -2.2618647 -0.5379937 -0.85213625 -0.21178624 0.025973042 -0.31952566 0.17778409
-0.099430725 -0.12575066 0.18609226 0.006275813 0.22365952 -0.014893513 -0.036126737 -0.5884
-0.09170819 -0.15576805 -0.16093177 -0.18686369 -0.47673896 0.19905098 -0.23297235 -0.16150069
0.16038752 -0.08741824 0.29544201 -0.20681764 -0.17095526 -0.27996656 -0.04060406 -0.22877082
-0.18208921 -0.1616126 -0.15247826 -0.16471386 -0.21640837 -0.037839174 0.19336729 -0.2953306
-0.32308763 -0.28985783 -0.21735081 -0.059571743 0.22654712 -0.18400726 -0.28289723 0.19171064
0.32664734 0.17857458 -0.033332773 0.07568176 0.08713981 -0.8456611 -0.34416214 1.8783559
0.33202523 -0.75152296 0.09468489 -0.21128003 0.12700304 0.0039337445 0.034643583 -0.015296636
0.7170596 0.03403497 -0.3632479 -0.18483424 -0.20335218 0.31101596 -0.26011285 -0.21636888
0.13147661 0.08562609 0.19210279 -0.004272183 -0.14665425 0.057458118 -0.3218993 0.51643956
0.17775656 -0.19436459 1.4070883 -0.81698275 -2.4935348 0.31520236 -0.23863219 -0.39824447
-0.1875617 0.5031113 -0.21231818 0.08506616 -0.13811179 1.207434 -0.263056 -0.18397781
-0.111696124 -0.21104991 0.016997417 0.12601714 0.016827306 0.12752597 -0.27403533 -0.07226567
-0.1761559 0.0058045387 -0.089717194 0.16013536 -0.09340191 0.26531336 -0.30066174 0.27023214
0.10649037 -0.40090084 -0.010613864 0.86339176 0.13979283 -0.26912892 -0.054515917 0.0039688405
-0.09952208 -0.30074304 -0.094362736 -0.026390832 0.17317387 0.105500385 0.24237058 0.14360945
-0.041313253 0.05710244 -0.1813995 0.029453237 -0.1121229 0.15147822 0.21629429 -0.07775698
-1.8033856 2.363136 -0.3313687 0.047734406 0.0345269 -0.54944366 -0.24856995 0.94142616
0.114823885 0.22275515 0.6521873 0.38848585 -0.15452878 -0.04047359 -0.30540636 -0.42217264
-0.13067816 -0.0072939205 0.094455026 -0.37108648 -0.037387125 0.11267845 -0.107472405 0.062400315
0.9372815 0.2934639 0.23136266 -0.35849285 -0.020660847 1.4040021 0.055367146 -0.07582804
0.30659875 0.12631062 -0.12749676 -0.04538891 -3.087066 -0.76772946 0.6234344 -0.13381502
0.0055995747 -0.24562971 0.09456374 0.04189254 -0.016432405 1.9435061 -0.057220604 -0.09545662
-1.185485 0.04662268 -0.10469174 0.5579337 -0.5943582 -0.37470168 0.84805983 -0.6365296
-0.98850495 0.16285613 -0.35659996 0.21078722 0.008391535 -0.096738905 -0.054308813 -0.105816886
-0.12612863 -0.24682713 -0.18703002 -0.1679431 -0.2077595 0.0022742576 0.77206415 0.3366302
0.77150553 -0.27125153 -1.1337262 -0.009677078 -0.29757842 0.049811624 -0.30337322 0.11664859
0.16809161 -0.040195793 0.443129 -0.512839 -0.33865356 -0.17842993 0.2861849 0.30678013
00000000: b15d 563e 229f 3fbd d3a8 66be b5b0 8a3e
00000010: 9f25 163f 8c73 9f3d 80bb 30bf ab2e 903f
00000020: de6b 13c0 990f 96be 1c51 01bb e2ec 5fbe
00000030: b1f5 45bf cec7 01bf acf9 cbba 29f0 13be
00000040: e7f8 5e3f d810 1bbf 02e4 33bd ec65 bebd
00000050: 24e1 643d 65f9 ee3c e1d6 0bbe bab7 dcbd
00000060: ce3e 0bbe 527d 173e 1a82 b6bd 2003 e7be
00000070: f86d b23c 3518 42bd 99fd 02be e686 18bf
00000080: 5e80 39be 64c2 10c0 f5b9 09bf 9a25 5abf
00000090: 7ede 58be 6bc5 d43c de98 a3be 080d 363e
000000a0: 56a2 cbbd c8c4 00be f88e 3e3e 56a5 cd3b
000000b0: 0007 653e ec03 74bc a1f9 13bd 62a1 16bf
000000c0: 81d1 bbbd a981 1fbe 4ccb 24be 3259 3fbe
000000d0: 2117 f4be 05d4 4b3e 4e90 6ebe 7060 25be
000000e0: a03c 243e 5608 b3bd 2d44 973e 01c8 53be
000000f0: e50e 2fbe c757 8fbe 7150 26bd e642 6abe
00000100: 9875 3abe c67d 25be 4323 1cbe c0aa 28be
00000110: 289a 5dbe 40fd 1abd 1302 463e 9335 97be
00000120: be6b a5be 3f68 94be 3691 5ebe 8001 74bd
00000130: f8fb 673e 666c 3cbe e8d7 90be cb4f 443e
00000140: 523e a73e 41dc 363e f287 08bd 0aff 9a3d
00000150: 5b76 b23d 3f7d 58bf 0536 b0be f76d f03f
00000160: 36ff a93e cf63 40bf 27ea c13d cb59 58be
00000170: 160d 023e a4e6 803b 6ee6 0d3d be9e 7abc
00000180: 3891 373f 4168 0b3d a1fb b9be 3045 3dbe
00000190: 8e3b 50be 7c3d 9f3e 832d 85be ce8f 5dbe
000001a0: cea1 063e bb5c af3d 98b6 443e abfd 8bbb
000001b0: 882c 16be 3459 6b3d fccf a4be 6235 043f
000001c0: d105 363e 8307 47be 781b b43f c825 51bf
000001d0: 1396 1fc0 3462 a13e ff5b 74be b3e6 cbbe
000001e0: 2d10 40be e7cb 003f f069 59be 2b37 ae3d
000001f0: 2d6d 0dbe 338d 9a3f 47af 86be ae64 3cbe
00000200: f0c0 e4bd 781d 58be 2b3e 8b3c a30a 013e
00000210: 6bd9 893c 2b96 023e 5c4e 8cbe 0600 94bd
00000220: 3662 34be 0034 be3b a6bd b7bd 86fa 233e
00000230: 8049 bfbd 27d7 873e 56f0 99be de5b 8a3e
00000240: a017 da3d e042 cdbe c6e5 2dbc 3e07 5d3f
00000250: da25 0f3e 44cb 89be 154c 5fbd 0c0d 823b
00000260: 3bd2 cbbd fefa 99be 4041 c1bd 9631 d8bc
00000270: 7e54 313e 9610 d83d fe2f 783e 5b0e 133e
00000280: 1638 29bd 40e4 693d cac0 39be ea47 f13c
00000290: b1a0 e5bd 1b1d 1b3e 407c 5d3e 0d3f 9fbd
000002a0: 57d5 e6bf 9f3d 1740 29a9 a9be 2785 433d
000002b0: 146c 0d3d 57a8 0cbf 1f89 7ebe 4e01 713f
000002c0: c928 eb3d ed19 643e bff5 263f 9ee7 c63e
000002d0: cb3c 1ebe a3c7 25bd 395e 9cbe 0327 d8be
000002e0: 7fd0 05be d701 efbb a371 c13d 0cff bdbe
000002f0: 3e23 19bd f6c3 e63d 7e1a dcbd 7997 7f3d
00000300: aef1 6f3f e640 963e 55ea 6c3e 608c b7be
00000310: f040 a9bc 57b6 b33f a9c8 623d bb4b 9bbd
00000320: 83fa 9c3e 9257 013e 838e 02be b9e9 39bd
00000330: 7d92 45c0 eb89 44bf 6699 1f3f ce06 09be
00000340: a37c b73b 5b86 7bbe a2aa c13d 8397 2b3d
00000350: 409d 86bc cfc4 f83f 2760 6abd c37e c3bd
00000360: f9bd 97bf 6cf7 3e3d 9f68 d6bd bed4 0e3f
00000370: dc27 18bf e6d8 bfbe 731a 593f 9bf3 22bf
00000380: a90e 7dbf c2c3 263e 4594 b6be 9bd8 573e
00000390: a67c 093c 0c1f c6bd eb72 5ebd 86b6 d8bd
000003a0: dd27 01be 40c0 7cbe cc84 3fbe 47f9 2bbe
000003b0: e8be 54be b60b 153b ffa5 453f cb5a ac3e
000003c0: 6381 453f 7be1 8abe f11d 91bf 9b8c 1ebc
000003d0: 335c 98be 4607 4c3d bc53 9bbe 75e5 ee3d
000003e0: 3520 2c3e 58a4 24bd cee1 e23e 6b49 03bf
000003f0: 0064 adbe 56b6 36be d486 923e 4912 9d3e

fc1.bias f4 [64]
-0.0054623545 -0.2369212 -0.25702208 -0.19730732 0.10260253 -0.5291939 -0.11224355 0.023893755
-0.23167083 0.13288127 0.11753501 0.18210761 -0.24447648 0.085047916 -0.19918796 0.27825987
0.033355363 -0.183514 0.054822106 -0.2858472 -0.29074794 0.07598111 0.10324377 -0.14152353
0.0543112 -0.23352094 -0.39558962 0.05378001 0.08466294 -0.08660237 -0.18623877 -0.2550796
-0.14983095 0.1716853 -0.14854743 0.0012555369 0.16447559 0.021075666 0.13816257 -0.5277347
-0.21015355 -0.4662228 0.06734045 -0.44582444 -0.3654245 -0.35243583 0.056719527 0.3243126
-0.14543724 -0.040912647 -0.5152535 -0.12617154 0.111646816 -0.10323799 0.14809029 -0.10428177
0.009844996 -0.26831204 -0.2745713 -0.08728242 0.26784766 -0.2680856 -0.2274044 -0.18744442
00000000: 8dfd b2bb 799b 72be 6698 83be ee0a 4abe
00000010: 4621 d23d 4079 07bf f2df e5bd d6bc c33c
00000020: 1e3b 6dbe 0712 083e 32b6 f03d 6b7a 3a3e
00000030: 0b58 7abe 9a2d ae3d eef7 4bbe 1478 8e3e
00000040: a29f 083d 18eb 3bbe 258d 603d 905a 92be
00000050: eadc 94be fc9b 9b3d 7871 d33d 8beb 10be
00000060: 6c75 5e3d 1d20 6fbe b98a cabe 6e48 5c3d
00000070: c363 ad3d 955c b1bd 60b5 3ebe cb99 82be
00000080: 496d 19be 45ce 2f3e d11c 18be d490 a43a
00000090: 4a6c 283e e0a6 ac3c 7d7a 0d3e 9f19 07bf
000000a0: 7e32 57be c1b4 eebe cae9 893d 1a43 e4be
000000b0: ec18 bbbe 7872 b4be bc52 683d 4d0c a63e
000000c0: 80ed 14be 0594 27bd a7e7 03bf 1d33 01be
000000d0: 16a7 e43d 706e d3bd fba4 173e ae91 d5bd
000000e0: e84c 213c 3260 89be 9c94 8cbe 20c1 b2bd
000000f0: 5423 893e 8442 89be b3dc 68be 6ef1 3fbe

fc2.weight f4 [2, 64]
0.0016934926 0.24417134 0.04298074 -0.22742136 -0.03498824 0.092297554 -0.012876149 0.052539825
-0.08333653 -0.076843664 0.014530489 0.021287322 -0.14376584 0.12728561 -0.05371952 0.08909097
-0.18542382 0.09776284 -0.03476585 0.22278301 0.05124332 -0.006642529 -0.24690138 0.8238758
0.21776293 -0.005922199 0.92664224 -0.07205355 0.094677396 -0.08033576 0.006962999 -0.023817658
-0.58051354 -0.006415715 0.032701183 0.05017905 -0.08527141 0.07794863 -0.0877894 0.011960088
-0.112593085 0.12763573 0.52296734 0.024051772 0.06555416 0.069485985 0.387651 0.04726462
-0.02041452 -0.2639899 0.5759025 0.4711439 -0.60055417 0.012353435 0.11415841 0.14410527
0.26611316 0.1500761 0.11286041 -0.096146 -0.14951932 -0.34785378 0.03425737 -0.09160064
-0.17627357 -0.2663646 0.03442002 0.1538651 -0.04456219 0.032414686 -0.058695782 -0.017736062
0.005851686 0.19354863 -0.020339943 -0.045086205 0.14576687 -0.11831065 0.04103774 0.009239912
0.21845464 -0.0803611 0.237505 -0.0013789092 -0.0699503 -0.19536369 0.25900313 -0.77717763
-0.0871889 -0.06031687 -1.0641952 -0.07728158 -0.09332676 0.0543677 -0.002052668 -0.10444611
0.44395298 0.0034663063 -0.005729322 -0.088326156 0.18110426 -0.079354964 0.23329493 -0.007221372
0.102144696 -0.32149318 -0.43223897 0.02128653 0.07303326 0.05693559 -0.3899732 0.01867639
-0.13012606 0.24398072 -0.69432294 -0.59084815 0.43803012 0.030565009 -0.09094575 -0.029592982
-0.109583385 0.09358245 -0.110683106 0.2191076 0.03275736 0.22919159 -0.16966505 0.2140203
00000000: 2ff8 dd3a 0d08 7a3e 930c 303d 25e1 68be
00000010: d44f 0fbd 8006 bd3d 7cf6 52bc 0034 573d
00000020: 58ac aabd 3660 9dbd 4a11 6e3c c062 ae3c
00000030: 5a37 13be 2957 023e 0009 5cbd 5475 b63d
00000040: bedf 3dbe e237 c83d a366 0ebd 3b21 643e
00000050: 84e4 513d 92a9 d9bb b7d3 7cbe 86e9 523f
00000060: 3ffd 5e3e 020f c2bb 6d38 6d3f d090 93bd
00000070: 39e6 c13d 1387 a4bd de29 e43b 401d c3bc
00000080: 899c 14bf eb3a d2bb adf1 053d 8c88 4d3d
00000090: c7a2 aebd 88a3 9f3d eeca b3bd 3ff4 433c
000000a0: 3497 e6bd f1b2 023e 30e1 053f 3908 c53c
000000b0: 4241 863d ab4e 8e3d 317a c63e 8c98 413d
000000c0: 5a3c a7bc af29 87be 596e 133f c639 f13e
000000d0: ebbd 19bf 1066 4a3c e2cb e93d 5590 133e
000000e0: fc3f 883e 8dad 193e 5c23 e73d 32e8 c4bd
000000f0: 981b 19be e419 b2be 7551 0c3d 1e99 bbbd
00000100: 0f81 34be f160 88be 02fc 0c3d d08e 1d3e
00000110: d886 36bd 43c5 043d fd6a 70bd 384b 91bc
00000120: 80bf bf3b 9d31 463e f49f a6bc 50ac 38bd
00000130: e943 153e db4c f2bd 3017 283d 0063 173c
00000140: 93b2 5f3e 5c94 a4bd 8334 733e 84bc b4ba
00000150: 1a42 8fbd 6b0d 48be 0f9c 843e 1df5 46bf
00000160: 1890 b2bd d30e 77bd 8c37 88bf ce45 9ebd
00000170: 1a22 bfbd aab0 5e3d 0e86 06bb d8e7 d5bd
00000180: ce4d e33e f82a 633b 09bd bbbb 58e4 b4bd
00000190: 6573 393e db84 a2bd dee4 6e3e 42a1 ecbb
000001a0: 3d31 d13d c19a a4be 6d4e ddbe 1761 ae3c
000001b0: 7692 953d 4b35 693d 91aa c7be 3bff 983c
000001c0: c43f 05be 15d6 793e 26bf 31bf d341 17bf
000001d0: 7c45 e03e 7863 fa3c c441 babd fb6c f2bc
000001e0: 416d e0bd 28a8 bf3d d3ad e2bd be5d 603e
000001f0: 952c 063d 33b1 6a3e adbc 2dbe 2328 5b3e

fc2.bias f4 [2]
0.24922252 -0.19124725
00000000: 3034 7f3e 52d6 43be
