machineLearning/surfaceDetectionEngine/data/best_model.pth (torch, 4849 bytes, 4 tensors)

fc1.weight f4 [64, 9]
-0.017872345 0.01990021 -0.35438612 0.008090844 0.108885124 0.025248922 2.0633845 0.13766256
-0.67639583 -0.3955418 0.015060027 -0.019146893 -0.2058666 -0.8167804 -0.027821172 -1.1854905
0.20112036 -1.1067216 -0.1026879 -0.079092726 -0.33020332 0.09388354 0.5651229 0.26724362
0.56885433 -0.50511885 -0.82791376 -0.13268964 -0.0033152152 -0.29754335 -0.17955238 0.087367415
-0.010105984 -0.052484278 -0.3580556 -0.21343568 -0.019456431 -0.07334458 -0.03672086 -0.13541059
-0.07740996 0.026633881 -0.18112938 0.01523055 -0.33137074 -0.2717138 -0.07002827 0.28986558
0.149714 0.0677886 0.103098355 0.06626825 0.025643587 0.12889938 -0.43467817 0.093359195
-0.34599742 -0.77036506 -0.4017388 -0.24129188 -0.5965038 0.2541824 -0.61864567 -0.0077496953
-0.13472149 0.07055728 0.42431495 -0.34355482 -0.32507896 1.2600846 0.8197689 0.56497407
-0.26115942 -0.08347468 -0.024798593 0.046689592 0.033780538 -0.24449722 -0.19679646 -0.034380317
0.27658468 -0.26569638 -0.20261014 -0.20496416 -0.0650429 0.08147721 -0.14462483 -0.15388477
0.2707435 0.13694434 -0.61024314 0.14258857 -0.5802275 0.1572694 -0.69064933 -0.14379162
0.71609455 -0.078526266 1.6016483 -0.032983534 -0.24712671 -0.10559691 -0.2760387 0.085746475
0.20576482 0.2398782 -0.11227866 -0.30692938 0.045994785 -0.11453133 -0.0008620067 -0.077033274
-0.42391205 -0.20938371 -1.0863545 -1.4143528 1.0786835 -0.12430755 0.112396665 0.05649473
0.15719321 0.17310219 0.26449126 0.42389917 -0.66905856 -0.23098792 -0.05731513 -0.18372634
0.18640113 0.5928647 0.28724164 -0.6259832 0.42791858 0.14162017 -0.40745285 0.14205746
-0.039016575 0.013823723 0.23779453 -0.4548715 -0.25246152 -0.59088564 -0.37286273 -1.9514145
0.049822707 -0.14917761 -0.11841698 -0.33698365 -0.42159823 -0.059103876 0.5133202 0.1996934
0.92066497 -0.08151211 -0.119086444 -0.33276138 0.073002785 -0.27353665 0.07377486 -0.34169558
0.17760254 0.046724442 0.3683502 -0.3187232 0.036382746 -0.110607415 0.3470347 -0.067792974
-0.14846611 0.5768495 -1.8604091 -0.41505006 0.02982451 -0.32122815 -0.85885257 -0.47016257
-0.14081293 0.07894963 0.22490509 0.0024836825 -0.8690497 0.09062028 -0.35121924 -0.20920116
0.3408545 0.49728754 -0.010303579 -1.4528884 0.91893166 -0.2543486 -0.029576106 0.18241306
-0.15056933 1.0147226 0.4373449 -1.8208457 -0.076374754 0.59923446 -0.2659607 -0.26973674
0.047194403 0.2611519 -0.05665831 0.31796652 -0.11273754 -0.008186579 0.21401636 -0.13565902
-0.23458478 0.24617526 -0.13360815 -0.24417457 -0.16542411 0.16475408 -0.11840924 -0.049889326
-0.12530412 -0.07411882 0.34692305 -0.0016121824 0.080790654 -0.017505024 2.7802174 1.1758586
-0.36251873 -0.10323421 -0.031472817 -0.13153003 -0.645818 -0.19383886 0.29015413 -0.14751363
1.1466233 -2.1743677 0.012069874 0.062464144 -0.32605827 0.03660724 0.22094744 -0.17984204
-3.455978 -0.41462612 -0.2853833 -0.13478637 -0.02259779 -0.29726195 0.18677744 -0.21906471
-0.036664646 0.21863429 0.0042535067 -0.10855532 -0.32655403 -0.017810794 -0.040429734 0.06126162
00000000: 0669 92bc c405 a33c 1972 b5be 768f 043c
00000010: 2aff de3d d4d6 ce3c 7e0e 0440 6af7 0c3e
00000020: 4728 2dbf 7484 cabe 55be 763c f2d9 9cbc
00000030: b2ce 52be 8518 51bf 3ae9 e3bc 27be 97bf
00000040: 7ff2 4d3e 0ea9 8dbf 094e d2bd 5efb a1bd
00000050: 6910 a9be 0346 c03d e5ab 103f 28d4 883e
00000060: 70a0 113f 784f 01bf 28f2 53bf cbdf 07be
00000070: 1544 59bb 9a57 98be 94dc 37be b0ed b23d
00000080: 9293 25bc c1f9 56bd 1053 b7be e28e 5abe
00000090: 1863 9fbc af35 96bd 9d68 16bd 13a9 0abe
000000a0: 1d89 9ebd 4c2f da3c fb79 39be 8f89 793c
000000b0: 6da9 a9be 121e 8bbe fb6a 8fbd 4369 943e
000000c0: a04e 193e c0d4 8a3d 3b25 d33d a6b7 873d
000000d0: 8012 d23c 33fe 033e 238e debe 1b33 bf3d
000000e0: 9326 b1be a536 45bf b5b0 cdbe 3815 77be
000000f0: 79b4 18bf 3224 823e 905f 1ebf 28f1 fdbb
00000100: 6ef4 09be 5680 903d cf3f d93e 6be6 afbe
00000110: c070 a6be 744a a13f 60dc 513f 24a2 103f
00000120: b0b6 85be c6f4 aabd 6b26 cbbc 963d 3f3d
00000130: 765d 0a3d 7b5d 7abe 0385 49be 60d2 0cbd
00000140: 829c 8d3e 5b09 88be 0879 4fbe 20e2 51be
00000150: 3635 85bd 86dd a63d 8818 14be f893 1dbe
00000160: e49e 8a3e 233b 0c3e e538 1cbf bd02 123e
00000170: ca89 14bf 3b0b 213e 65ce 30bf 1c3e 13be
00000180: f951 373f 61d2 a0bd d002 cd3f be19 07bd
00000190: c90e 7dbe 3143 d8bd f254 8dbe d99b af3d
000001a0: 03b4 523e a2a2 753e 5bf2 e5bd d925 9dbe
000001b0: 0765 3c3d 678f eabd 4af8 61ba 9fc3 9dbd
000001c0: 000b d9be af68 56be aa0d 8bbf 8309 b5bf
000001d0: 4d12 8a3f f594 febd 3930 e63d 0567 673d
000001e0: 42f7 203e b341 313e 666b 873e 5009 d93e
000001f0: 6c47 2bbf 1988 6cbe 45c3 6abd c222 3cbe
00000200: f0df 3e3e fbc5 173f 5611 933e 6f40 20bf
00000210: 2518 db3e e104 113e a99d d0be 8377 113e
00000220: d8cf 1fbd e67c 623c 6980 733e ebe4 e8be
00000230: a342 81be 4844 17bf dde7 bebe f3c7 f9bf
00000240: e512 4c3d 04c2 18be 9a84 f2bd 1f89 acbe
00000250: b9db d7be e816 72bd f468 033f 6d7c 4c3e
00000260: b3b0 6b3f d2ef a6bd 98e3 f3bd b35f aabe
00000270: 7c82 953d ff0c 8cbe 4617 973d b9f2 aebe
00000280: 71dd 353e 2162 3f3d 6698 bc3e b02f a3be
00000290: 1306 153d 2486 e2bd 88ae b13e 0bd7 8abd
000002a0: 8007 18be 69ac 133f e321 eebf 7181 d4be
000002b0: 8852 f43c 0478 a4be c3dd 5bbf 26b9 f0be
000002c0: 4431 10be 58b0 a13d 854d 663e 47c5 223b
000002d0: 0b7a 5ebf 2097 b93d 02d3 b3be d438 56be
000002e0: 7b84 ae3e 799c fe3e 58d0 28bc 3ff8 b9bf
000002f0: 1b3f 6b3f fb39 82be 9749 f2bc 7dca 3a3e
00000300: d92e 1abe 6ee2 813f aceb df3e 7911 e9bf
00000310: 5e6a 9cbd 6e67 193f 002c 88be ef1a 8abe
00000320: eb4e 413d b4b5 853e 8b12 68bd 82cc a23e
00000330: f0e2 e6bd 0021 06bc 1b27 5b3e 33ea 0abe
00000340: fe36 70be 5e15 7c3e 93d0 08be e608 7abe
00000350: f064 29be 4bb5 283e 8b80 f2bd c058 4cbd
00000360: b94f 00be 9ccb 97bd e69f b13e dd4f d3ba
00000370: 9275 a53d b266 8fbc 15ef 3140 8982 963f
00000380: 0e9c b9be 756c d3bd a4e9 00bd cfaf 06be
00000390: 5454 25bf b27d 46be 158f 943e d00d 17be
000003a0: 8dc4 923f d728 0bc0 b9c0 453c 67da 7f3d
000003b0: 1cf1 a6be 79f1 153d 0c40 623e 8328 38be
000003c0: be2e 5dc0 e049 d4be c31d 92be 7005 0abe
000003d0: 001f b9bc b832 98be 9642 3f3e 8052 60be
000003e0: ab2d 16bd abe1 5f3e 0061 8b3b 4052 debd
000003f0: 1732 a7be f1e7 91bc a699 25bd 77ed 7a3d

fc1.bias f4 [64]
-0.06877624 -0.32641858 -0.06312325 -0.29825112 -0.02071802 -0.3044134 -0.3256289 -0.03738171
0.2206758 0.31468946 0.08410862 0.025650324 0.12025806 0.0002713702 0.023962392 0.16326588
0.10976449 0.07277829 0.21670707 0.057475045 -0.18912043 0.14855182 -0.14456388 -0.29927683
-0.27306837 0.024194192 0.24622487 0.12951438 -0.12089805 0.020358961 0.26946712 0.16336195
-0.004465714 -0.31988728 -0.4430646 0.20776437 -0.18018 -0.1950105 0.22956444 -0.07399586
-0.097754925 0.053038474 -0.13751599 -0.0703038 -0.30553386 -0.3311488 -0.21994197 -0.2988455
-0.07037594 0.025218781 -0.1845698 -0.19540986 -0.1263821 -0.03816324 -0.09308371 0.08465481
-0.032549087 -0.19849989 -0.3412155 0.21623804 0.021112535 -0.120075546 -0.09525714 -0.5646245
00000000: 8fda 8cbd 5620 a7be c346 81bd 5fb4 98be
00000010: d6b8 a9bc 13dc 9bbe d5b8 a6be 901d 19bd
00000020: d6f8 613e fa1e a13e 2441 ac3d a120 d23c
00000030: dc49 f63d b146 8e39 c74c c43c 2c2f 273e
00000040: 34cc e03d c90c 953d 75e8 5d3e f46a 6b3d
00000050: c9a8 41be f81d 183e 8e08 14be d03a 99be
00000060: 9ecf 8bbe e632 c63c 5f22 7c3e 6b9f 043e
00000070: 6699 f7bd d6c7 a63c 98f7 893e 5b48 273e
00000080: 2055 92bb 44c8 a3be 5dd9 e2be 2fc0 543e
00000090: 1b81 38be d5b0 47be f112 6b3e 248b 97bd
000000a0: bc33 c8bd df3e 593d fed0 0cbe 70fb 8fbd
000000b0: ef6e 9cbe 568c a9be 7838 61be 4702 99be
000000c0: 4321 90bd 9e97 ce3c deff 3cbe 8619 48be
000000d0: 4f6a 01be 0f51 1cbd aca2 bebd 805f ad3d
000000e0: 3152 05bd 8e43 4bbe ccb3 aebe 816d 5d3e
000000f0: 32f4 ac3c 2bea f5bd 2d16 c3bd 3b8b 10bf

fc2.weight f4 [2, 64]
0.84281266 -0.0689265 0.37961087 0.0028661701 -0.056468964 0.08291988 -0.109342165 0.29247352
0.027246326 0.009583861 -0.29435113 0.027013414 0.34148782 0.08704923 -0.15939935 -0.09957335
-0.23005697 0.05139358 0.088938884 0.205861 -0.39062536 -0.16369016 0.09836759 -0.040197864
-0.21451154 0.1368002 -0.14381024 -0.056779742 -0.04033365 0.05523759 0.08219433 0.07833512
0.028362073 0.096256524 0.12749857 -0.3095221 0.41740677 -0.67919344 0.14827691 0.16444458
0.26328954 0.051680293 -0.0062478334 -0.34489438 0.012717002 -0.16885522 0.10982771 0.032218322
0.20630346 -0.6600378 -0.042570084 -0.07858828 -0.11664791 0.2313316 -0.038726144 0.08614794
0.14373682 0.07558182 0.0019250729 -0.018782338 0.046590786 0.083936036 -0.8094912 0.023832751
-0.9301776 0.10669907 -0.3783184 0.03835205 -0.051807173 0.10307531 0.116109885 -0.27011764
-0.06418416 0.046495304 0.40350074 0.08078109 -0.38946632 -0.051166415 0.10218572 -0.021105345
0.14637782 -0.117575504 -0.07643625 -0.27812892 0.6367923 0.24470009 -0.06730303 -0.004873678
0.3948839 -0.009920737 0.2945975 -0.10303262 -0.02524653 0.02093409 0.06084484 -0.14002982
-0.14124283 0.07405474 0.09642136 0.31572 -0.47060925 0.5905502 -0.23936357 -0.052221242
-0.06557059 -0.03830566 -0.102952436 0.21606804 0.010517854 0.3224191 -0.12061767 0.039756555
-0.19661035 0.59704155 -0.011969438 0.020376474 0.094252385 -0.3177202 0.11118488 -0.13534103
-0.21275638 -0.031220496 0.119173676 -0.04267206 0.04594504 0.017203093 0.7858947 0.042415984
00000000: 92c2 573f 5629 8dbd 5b5c c23e 5bd6 3b3b
00000010: 004c 67bd e6d1 a93d c9ee dfbd 17bf 953e
00000020: b033 df3c a005 1d3c 31b5 96be 3c4b dd3c
00000030: 7ed7 ae3e de46 b23d 9539 23be 1ded cbbd
00000040: 0e94 6bbe 1382 523d 9725 b63d 3acd 523e
00000050: 0c00 c8be 659e 27be f274 c93d 84a6 24bd
00000060: eaa8 5bbe 5a15 0c3e fe42 13be e091 68bd
00000070: e634 25bd d040 623d 8055 a83d 2a6e a03d
00000080: 9457 e83c 2422 c53d fc8e 023e ae79 9ebe
00000090: 57b6 d53e 9fdf 2dbf e7d5 173e 2964 283e
000000a0: e3cd 863e b7ae 533d a0ba ccbb ff95 b0be
000000b0: f95a 503c 62e8 2cbe 5aed e03d 5cf7 033d
000000c0: 3741 533e 3df8 28bf f85d 2ebd e4f2 a0bd
000000d0: 19e5 eebd 31e2 6c3e 4e9f 1ebd 556e b03d
000000e0: bf2f 133e a4ca 9a3d ba52 fc3a 6bdd 99bc
000000f0: fbd5 3e3d a8e6 ab3d d13a 4fbf e73c c33c
00000100: 1f20 6ebf 0b85 da3d f3b2 c1be 0a17 1d3d
00000110: c233 54bd 2619 d33d 05cb ed3d dc4c 8abe
00000120: fc72 83bd dc71 3e3d a697 ce3e 8e70 a53d
00000130: 2168 c7be e093 51bd bf46 d13d 1ee5 acbc
00000140: 11e4 153e 6dcb f0bd 9c8a 9cbd ea66 8ebe
00000150: d204 233f a992 7a3e 2cd6 89bd 60b3 9fbb
00000160: 392e ca3e 968a 22bc 7cd5 963e c402 d3bd
00000170: d0d1 cebc f87d ab3c 7038 793d fa63 0fbe
00000180: f6a1 10be 03aa 973d 9078 c53d 0da6 a13e
00000190: b2f3 f0be 4c2e 173f b91b 75be f1e5 55bd
000001a0: e049 86bd 65e6 1cbd bad8 d2bd f140 5d3e
000001b0: 1453 2c3c 1e14 a53e 6606 f7bd c5d7 223d
000001c0: 3954 49be b7d7 183f 761b 44bc 90ec a63c
000001d0: 6507 c13d 39ac a2be e6b4 e33d d796 0abe
000001e0: cfdc 59be 20c2 ffbc 5411 f43d e6c8 2ebd
000001f0: de30 3c3d 80ed 8c3c 6530 493f 62bc 2d3d

fc2.bias f4 [2]
0.17604902 -0.14811608
00000000: 3246 343e beab 17be
