machineLearning/surfaceDetectionEngine/data/best_model.pth (torch, 4849 bytes, 4 tensors)

fc1.weight f4 [64, 9]
0	0xbdea8bd8	-0.11452454
1	0xbe38eaeb	-0.18058364
2	0xbdc4263c	-0.09577605
3	0xbc667aa6	-0.014067328
4	0x3f2e1e82	0.680153
5	0x3e720a84	0.23636824
6	0x3f4a1a50	0.789464
7	0xbddabe3c	-0.106808156
8	0xbf19a91e	-0.6002368
9	0xbe8b60c0	-0.27222252
10	0xbea74476	-0.3266942
11	0x3dd4384b	0.103622995
12	0xbd7009b6	-0.05860301
13	0xbde6cd1b	-0.112695895
14	0x3dee675b	0.11640807
15	0xbe64f9fe	-0.2236099
16	0x3e9e3696	0.3090102
17	0xbe133fd8	-0.14379823
18	0xbd2bb6eb	-0.04192249
19	0xbe062f80	-0.13104057
20	0xbde52856	-0.11189334
21	0xbe13b97b	-0.14426224
22	0xbe71ebdb	-0.23625128
23	0xbddd1b00	-0.107961655
24	0x3e2daa08	0.16959393
25	0xbe525c18	-0.20542943
26	0x3d7eea80	0.062235355
27	0xbd7fa860	-0.062416434
28	0x3d0c7056	0.03428682
29	0xbf1a1fca	-0.60204756
30	0x3e3a9f5e	0.18224856
31	0xbd00029d	-0.031252492
32	0x3d982481	0.074288376
33	0xbdca1504	-0.0986729
34	0x3b5f8c75	0.0034110819
35	0x3e8016fa	0.2501753
36	0xbe896ccb	-0.26840815
37	0xbd7b2fab	-0.061324757
38	0xbe1b1c88	-0.15147603
39	0x3e3d93a6	0.18513355
40	0xbd9cc180	-0.07654095
41	0xbe8c86bb	-0.2744654
42	0xbd2f2256	-0.042757355
43	0x3e739d4e	0.23790476
44	0xbe8884ee	-0.26663917
45	0xbd350585	-0.044194717
46	0xbd74ba25	-0.059747834
47	0xbd8983bb	-0.06714579
48	0x3ee595f6	0.44840974
49	0xbf46e3a9	-0.7769113
50	0xbde20f30	-0.11038053
51	0xbf0097ea	-0.502318
52	0xbe4e4019	-0.20141639
53	0x3e407320	0.18793917
54	0x3d70ac3b	0.058758
55	0xbe2edd3e	-0.17076585
56	0xbeacfb08	-0.33785272
57	0xbe47d506	-0.19514856
58	0x3e4a4233	0.19751815
59	0x3dd886b4	0.105725676
60	0x3a959be6	0.0011414259
61	0xbe2fa253	-0.17151766
62	0x3ea2aaf7	0.3177106
63	0x3bc30e50	0.005952634
64	0xbcb9d333	-0.022683715
65	0xbe817446	-0.25284022
66	0xbee09dac	-0.43870294
67	0x3f630d9d	0.8869265
68	0x3b7a7a9a	0.003822005
69	0xbe181b27	-0.14854108
70	0xbe31b4d6	-0.1735414
71	0x3edd441b	0.43216023
72	0x3daa6dda	0.08321734
73	0x3d4dbefa	0.050230958
74	0xbeb0da28	-0.3454144
75	0xbe967b29	-0.2939084
76	0x3f16a181	0.58840185
77	0x3e1cd83e	0.15316865
78	0xbefdb45c	-0.49551666
79	0x3f35c56b	0.7100436
80	0x4005cfc7	2.0908067
81	0xbf2fb6bc	-0.68638206
82	0x3de67a7d	0.112538315
83	0xbee5f931	-0.4491668
84	0xbeab01dd	-0.3339986
85	0x3efa292d	0.4885954
86	0x3ed5758a	0.41691238
87	0x3e28a799	0.16470183
88	0xbfb873f3	-1.4410385
89	0x3e673844	0.22580057
90	0xbe0cbe05	-0.13744362
91	0xbdb68d24	-0.08913639
92	0x3e99e9c1	0.30061153
93	0xbea76727	-0.32695886
94	0xbf06e99f	-0.5270023
95	0x3e8a2a23	0.26985273
96	0x3e51dfdd	0.20495553
97	0xbee50a7f	-0.4473457
98	0xbfc1cc29	-1.514043
99	0xbe5f6550	-0.21815991
100	0xbe9a1a2e	-0.300981
101	0x3e8b88e8	0.2725289
102	0xbea9fedb	-0.33202252
103	0xbe9facbc	-0.31186473
104	0xbe9d2204	-0.30690014
105	0x3de194e0	0.11014724
106	0x3e5c3fa3	0.2150865
107	0xbe8980fb	-0.26856217
108	0xbe6bca80	-0.23026466
109	0x3d8bd59f	0.06827854
110	0xbedd1dff	-0.43186948
111	0x3d4bb76f	0.049735483
112	0x3dd35706	0.10319333
113	0x3e2b29db	0.16715185
114	0x3d9ebd21	0.07750917
115	0xbe879707	-0.26482412
116	0xbea1790c	-0.31537664
117	0xbeff5763	-0.49871358
118	0xbcb1edb0	-0.021719784
119	0xbd9e4d7b	-0.07729622
120	0xbebacf3e	-0.36486238
121	0xbe9e40e1	-0.30908874
122	0xbe07f8cc	-0.13278502
123	0xbf79e845	-0.9762004
124	0xbf270922	-0.6524831
125	0x3eaca26a	0.33717662
126	0x3dca7b43	0.098867916
127	0xbee0ad5f	-0.43882272
128	0xbeed39ec	-0.46333253
129	0x3e407533	0.18794708
130	0xbe82e7c8	-0.2556746
131	0x3e2f6208	0.1712724
132	0xbeea8823	-0.4580699
133	0x3f425080	0.75904083
134	0xbf85bcda	-1.0448258
135	0x3b88a4e3	0.0041700467
136	0xbdb57e46	-0.08861975
137	0x3e161e85	0.1466008
138	0xbf0cb053	-0.5495655
139	0xbeaa4586	-0.33256167
140	0x3e1abf6f	0.15112089
141	0x3f10f833	0.5662872
142	0x3faa62eb	1.3311437
143	0xc003bdd3	-2.058461
144	0xbb01e439	-0.001981987
145	0xbc182218	-0.009285472
146	0xbe936832	-0.28790432
147	0xbec2f564	-0.38077843
148	0xbe25295e	-0.16129062
149	0xbe4b35c8	-0.19844735
150	0xbf982db8	-1.1888952
151	0xbea1d49a	-0.31607515
152	0xbefcdd4d	-0.4938759
153	0x3c15853c	0.009126004
154	0xbc9bd6f5	-0.019023398
155	0xbe5d240d	-0.21595784
156	0x3da4b2f5	0.08041946
157	0xbd28e28c	-0.041231677
158	0xbd724312	-0.059145994
159	0xbfba3a14	-1.4548974
160	0xbf815b27	-1.0105942
161	0x3f196f4c	0.5993545
162	0x3f0051b0	0.50124645
163	0xbd7f8332	-0.062380977
164	0x3e306e7f	0.17229651
165	0x3e609ebe	0.21935555
166	0x3f0fde51	0.561986
167	0x3e615016	0.22003207
168	0x3f610d32	0.8791076
169	0xbf4d1168	-0.80104685
170	0xbcdab9ac	-0.026699863
171	0xbefc1345	-0.4923345
172	0x3dd49fb8	0.103820264
173	0xbdf4f59e	-0.1196091
174	0x3c9e6edb	0.01933997
175	0xbe24f3ad	-0.1610858
176	0xbea81c54	-0.32834113
177	0xbf988830	-1.1916561
178	0xbf188cb7	-0.59589714
179	0x3f857acc	1.04281
180	0x3e0383e7	0.12843286
181	0xbe0bc1f0	-0.136482
182	0xbe94429a	-0.28957063
183	0x3f3f6379	0.7476116
184	0x3e447ece	0.19188997
185	0x3d8446b4	0.06458798
186	0xbf2c5138	-0.6731143
187	0xbfb20ade	-1.3909566
188	0x3f641571	0.89095217
189	0xbdbb5b64	-0.09148291
190	0x3d2fe04f	0.042938527
191	0xbe5c3c89	-0.21507467
192	0xbda1f677	-0.079083376
193	0xbed81184	-0.42200863
194	0xbe0e749e	-0.13911673
195	0x3fd31696	1.6491268
196	0xbff12892	-1.8840506
197	0x3f3a3eda	0.72752154
198	0xbc926f64	-0.01787538
199	0xbd18d6e7	-0.03731432
200	0xbe2eff17	-0.17089497
201	0x3a983e1e	0.0011615192
202	0x3e2b0197	0.16699825
203	0x3d925cbd	0.07146595
204	0x3caface8	0.021444753
205	0x3db107e1	0.08644081
206	0xbd5b8efd	-0.05360316
207	0xbd847e25	-0.06469373
208	0xbd6f8f95	-0.05848654
209	0xbdf34eb6	-0.11880247
210	0x3d8cc2eb	0.06873115
211	0x3e340fca	0.17584148
212	0x3e00bca4	0.1257196
213	0x3e15aef7	0.14617525
214	0x3d5244fa	0.051335312
215	0x3e4dbc22	0.20091298
216	0xbdc16660	-0.094433546
217	0xbd9e660e	-0.07734309
218	0x3dcf200c	0.10113534
219	0x3d930146	0.07177977
220	0x3ec6c416	0.38821477
221	0xbc7a81fe	-0.015289782
222	0x3f3f6658	0.7476554
223	0xbf2ff293	-0.68729514
224	0x3dcb4279	0.09924788
225	0xbda95cd1	-0.082696564
226	0xbe46eebb	-0.19427006
227	0xbe4d43b6	-0.20045361
228	0x3f272861	0.6529599
229	0xbf1e0f12	-0.61741745
230	0x3e35eeb8	0.17766845
231	0x3f550043	0.83203524
232	0x3ec2696c	0.37971056
233	0x3fd569fa	1.6672966
234	0x3c027cbd	0.00796431
235	0xbe2c3415	-0.16816743
236	0xbdb813b0	-0.0898813
237	0x3e57faee	0.21091816
238	0x3e3400f4	0.17578489
239	0x3d270561	0.040776614
240	0x3e5d2308	0.21595395
241	0xbed20df6	-0.41026276
242	0xbee06323	-0.43825635
243	0xbdb82ccb	-0.089929186
244	0xbe6f57d0	-0.23373342
245	0x3e749d9b	0.23888247
246	0xbdcebcc6	-0.100945994
247	0xbd801530	-0.06254041
248	0xbd3b9356	-0.045794807
249	0x3e021b26	0.12705669
250	0x3e9ecc60	0.310153
251	0xbea20ec6	-0.31651896
252	0x3c08a6d1	0.008340553
253	0xbd776963	-0.06040324
254	0xbe0cdf86	-0.13757142
255	0x3e97d50f	0.29654738

fc1.bias f4 [64]
0	0xbea1a609	-0.31571987
1	0x3e87ad3e	0.2649936
2	0xbea0730c	-0.31337774
3	0xbdf05470	-0.11734855
4	0x3dbe38b6	0.092881605
5	0xbcb7f5c6	-0.022456061
6	0x3bdc9dcc	0.006732678
7	0xbe76cd20	-0.24101686
8	0x3e7b3d03	0.24534993
9	0xbe82555d	-0.25455752
10	0xbe6ab25c	-0.22919601
11	0xbe760020	-0.24023485
12	0x3d5925e0	0.053014636
13	0xbe0067c7	-0.12539588
14	0xbe472cdb	-0.19450705
15	0x3d750e48	0.059828073
16	0x3e168f17	0.14703022
17	0xbdcff6d4	-0.101545006
18	0x3e362a7a	0.17789641
19	0x3e0a2a7c	0.13492769
20	0x3e3837a6	0.17989978
21	0xbc0e565e	-0.008687584
22	0xbe20c602	-0.15700534
23	0xbc72a802	-0.014810564
24	0xbf01bcae	-0.5067853
25	0x3e75f9e2	0.24021104
26	0xbe883f24	-0.26610672
27	0x3d28e916	0.041237913
28	0xbd47f0bc	-0.048813567
29	0xbe176097	-0.1478294
30	0xbe5eb597	-0.21748959
31	0xbde73ef7	-0.112913065
32	0xbcd64d9a	-0.02616005
33	0xbe21b958	-0.1579336
34	0x3d1e6771	0.03867287
35	0xbd053880	-0.032524586
36	0xbe225294	-0.15851814
37	0xbe5ea67d	-0.21743198
38	0x3d6be92b	0.057595413
39	0xbe3bc42e	-0.18336555
40	0xbf177be7	-0.59173435
41	0xbe9d5bc8	-0.30734086
42	0xbd8cbdbb	-0.06872126
43	0xbeb661f3	-0.35621604
44	0xbe299fff	-0.1656494
45	0xbe01ed34	-0.12688142
46	0xbe3b0a89	-0.18265738
47	0xbf09ad09	-0.53779656
48	0xbf023c8d	-0.50873643
49	0x3cb20669	0.021731572
50	0x3c822456	0.015886467
51	0xbcfa6cb7	-0.030569417
52	0xbd8c8cc9	-0.0686279
53	0xbe41a360	-0.18909979
54	0xbe37183c	-0.17880338
55	0xbee21f82	-0.44164664
56	0xbdeca28f	-0.11554443
57	0xbedffb0d	-0.43746224
58	0xbd6f2c3f	-0.058391806
59	0xbc393e75	-0.011306395
60	0xbe3294b6	-0.17439541
61	0x3e907aaf	0.282186
62	0xbe7a77b0	-0.2445972
63	0xbb99a9ff	-0.0046894546

fc2.weight f4 [2, 64]
0	0x3f7f8f37	0.99827904
1	0x3d568290	0.052370608
2	0xbb074240	-0.0020638853
3	0xbda61045	-0.08108572
4	0xbd75dfd0	-0.060027897
5	0x3e05f140	0.13080311
6	0x3d17b71a	0.037039854
7	0x3e3e2ee6	0.18572578
8	0xbe40ea63	-0.18839411
9	0xbed15be6	-0.40890425
10	0x3cfce1bf	0.030869363
11	0x3c188c40	0.009310782
12	0x3d766c10	0.06016165
13	0x3ec1f006	0.37878436
14	0x3ed6d9d4	0.41963065
15	0x3e6f2c89	0.23356833
16	0xbe15fc1b	-0.14646952
17	0x3edfb5c0	0.43693352
18	0xbe19db4c	-0.15025061
19	0x3dac365c	0.08408806
20	0xbee383ca	-0.44436485
21	0xbe6335b3	-0.22188453
22	0x3df521ed	0.119693615
23	0x3cdae6b0	0.026721328
24	0x3c0d04c0	0.0086070895
25	0xbe57a937	-0.21060644
26	0x3c466a88	0.01211036
27	0xbd4cb0b0	-0.04997319
28	0x3c8e090c	0.017338298
29	0x3e0cd10d	0.13751622
30	0xbe95b4dd	-0.2923955
31	0x3e5788ee	0.21048328
32	0xbed9fc82	-0.4257546
33	0xbe590066	-0.21191558
34	0xbc04be02	-0.008101942
35	0xbea3fd82	-0.3202935
36	0x3ef82c9b	0.4847153
37	0xbd82ade2	-0.06380822
38	0xbdd56ed8	-0.104215324
39	0x3da6c2e3	0.081426404
40	0x3d8a1511	0.06742299
41	0x3d638bea	0.055553354
42	0x3b022619	0.0019859134
43	0x3ea408b3	0.32037887
44	0xbc085d1d	-0.008322981
45	0xbc579b25	-0.013159548
46	0x3eba5422	0.36392313
47	0x3eb4deb1	0.3532615
48	0xbcdd44a5	-0.027010271
49	0x3dd904da	0.105966285
50	0x3c7889d0	0.015169576
51	0x3d74c787	0.059760597
52	0x3e8122b2	0.25221783
53	0x3e891b31	0.26778558
54	0x3f23258d	0.6372917
55	0xbf3fb0f4	-0.74879384
56	0xbe846b4f	-0.2586312
57	0xbde72275	-0.11285869
58	0xbb66a7b5	-0.0035195176
59	0x3ef0c2f0	0.47023726
60	0xbb07dff9	-0.0020732863
61	0x3db9e5c0	0.090770245
62	0xbcc6d410	-0.024271041
63	0xbe811f09	-0.2521899
64	0xbf5fecf1	-0.8747092
65	0xbcbe1280	-0.02320218
66	0xbc672510	-0.0141079575
67	0xbd90070a	-0.070325926
68	0x3d95c890	0.07313645
69	0xbe89edf6	-0.26939362
70	0x3c72973e	0.014806567
71	0xbe6afb4a	-0.22947422
72	0x3d17f574	0.037099317
73	0x3e99f37a	0.3006857
74	0xbd1fd11a	-0.039017774
75	0x3dc40962	0.09572102
76	0x3d3ef0f4	0.04661651
77	0xbf039833	-0.5140411
78	0xbeb7ffe5	-0.3593742
79	0xbbdddcd6	-0.0067707105
80	0x3d9235f0	0.07139194
81	0xbec18e3e	-0.37803835
82	0x3dd1a4cc	0.10236511
83	0xbd3a558a	-0.045491733
84	0x3ebc8ca4	0.3682605
85	0x3e90fc09	0.28317288
86	0x3ddd4bce	0.10805474
87	0x3ce268db	0.02763789
88	0xbd2cc911	-0.04218394
89	0x3e67de48	0.22643387
90	0x3bd89d06	0.0066105155
91	0x3c64bd40	0.013961136
92	0x3d88d709	0.0668164
93	0xbd85c319	-0.065313525
94	0x3ecbd6da	0.39812356
95	0xbaadc99d	-0.0013258938
96	0x3ed061ed	0.4069971
97	0x3ea6af28	0.3255551
98	0xbcf8b0d4	-0.030357756
99	0x3eac9ee5	0.33714977
100	0xbecba61f	-0.39775178
101	0x3e20504f	0.15655635
102	0xba441a00	-0.0007480681
103	0x3dc6ee37	0.097134046
104	0xbc26f88d	-0.010191095
105	0x3d87d538	0.06632465
106	0xbd6bc43d	-0.057560194
107	0xbe9c793a	-0.3056124
108	0xbcb9228c	-0.022599481
109	0xbe25271c	-0.161282
110	0xbe81a78a	-0.25323135
111	0xbe82fd0a	-0.25583678
112	0x3df49278	0.11941999
113	0xbd9ed4d1	-0.07755435
114	0xba929980	-0.0011184663
115	0xbd54a31f	-0.051913377
116	0xbe597159	-0.21234645
117	0xbebfc5bb	-0.37455544
118	0xbf00611d	-0.50148183
119	0x3f4e7c7f	0.80658716
120	0x3e292464	0.16517788
121	0xbd830e27	-0.06399184
122	0x3d5018e1	0.050804976
123	0xbecfbfb2	-0.4057594
124	0xbdaaf581	-0.083476074
125	0xbda32364	-0.079657346
126	0xbd952102	-0.07281686
127	0x3eac8561	0.3369551

fc2.bias f4 [2]
0	0xbdebf88b	-0.11522015
1	0xbd3f2219	-0.046663377
